program(1.0)
[buildInfo = dict<tensor<string, []>, tensor<string, []>>({{"coremlc-component-MIL", "3402.3.2"}, {"coremlc-version", "3402.4.1"}, {"coremltools-component-torch", "2.6.0"}, {"coremltools-source-dialect", "TorchScript"}, {"coremltools-version", "8.3.0"}})]
{
    func main<ios15>(tensor<fp32, [3, 589]> mask, tensor<fp32, [3, 160000]> waveform) {
            tensor<fp32, [256]> resnet_seg_1_bias = const()[name = tensor<string, []>("resnet_seg_1_bias"), val = tensor<fp32, [256]>(BLOBFILE(path = tensor<string, []>("@model_path/weights/weight.bin"), offset = tensor<uint64, []>(64)))];
            tensor<fp32, [256, 5120]> resnet_seg_1_weight = const()[name = tensor<string, []>("resnet_seg_1_weight"), val = tensor<fp32, [256, 5120]>(BLOBFILE(path = tensor<string, []>("@model_path/weights/weight.bin"), offset = tensor<uint64, []>(1152)))];
            tensor<int32, [1]> waveforms_1_axes_0 = const()[name = tensor<string, []>("waveforms_1_axes_0"), val = tensor<int32, [1]>([0])];
            tensor<fp32, [1, 3, 160000]> waveforms_1 = expand_dims(axes = waveforms_1_axes_0, x = waveform)[name = tensor<string, []>("waveforms_1")];
            tensor<fp32, []> var_6_promoted = const()[name = tensor<string, []>("op_6_promoted"), val = tensor<fp32, []>(0x1p+15)];
            tensor<fp32, [1, 3, 160000]> waveforms = mul(x = waveforms_1, y = var_6_promoted)[name = tensor<string, []>("waveforms")];
            tensor<int32, [1]> squeeze_0_axes_0 = const()[name = tensor<string, []>("squeeze_0_axes_0"), val = tensor<int32, [1]>([0])];
            tensor<fp32, [3, 160000]> squeeze_0 = squeeze(axes = squeeze_0_axes_0, x = waveforms)[name = tensor<string, []>("squeeze_0")];
            tensor<int32, [2]> var_21_begin_0 = const()[name = tensor<string, []>("op_21_begin_0"), val = tensor<int32, [2]>([0, 0])];
            tensor<int32, [2]> var_21_end_0 = const()[name = tensor<string, []>("op_21_end_0"), val = tensor<int32, [2]>([1, 160000])];
            tensor<bool, [2]> var_21_end_mask_0 = const()[name = tensor<string, []>("op_21_end_mask_0"), val = tensor<bool, [2]>([false, true])];
            tensor<bool, [2]> var_21_squeeze_mask_0 = const()[name = tensor<string, []>("op_21_squeeze_mask_0"), val = tensor<bool, [2]>([true, false])];
            tensor<fp32, [160000]> var_21 = slice_by_index(begin = var_21_begin_0, end = var_21_end_0, end_mask = var_21_end_mask_0, squeeze_mask = var_21_squeeze_mask_0, x = squeeze_0)[name = tensor<string, []>("op_21")];
            tensor<int32, [1]> var_38_begin_0 = const()[name = tensor<string, []>("op_38_begin_0"), val = tensor<int32, [1]>([0])];
            tensor<int32, [1]> var_38_end_0 = const()[name = tensor<string, []>("op_38_end_0"), val = tensor<int32, [1]>([400])];
            tensor<bool, [1]> var_38_end_mask_0 = const()[name = tensor<string, []>("op_38_end_mask_0"), val = tensor<bool, [1]>([false])];
            tensor<fp32, [400]> var_38 = slice_by_index(begin = var_38_begin_0, end = var_38_end_0, end_mask = var_38_end_mask_0, x = var_21)[name = tensor<string, []>("op_38")];
            tensor<int32, [1]> var_43_begin_0 = const()[name = tensor<string, []>("op_43_begin_0"), val = tensor<int32, [1]>([160])];
            tensor<int32, [1]> var_43_end_0 = const()[name = tensor<string, []>("op_43_end_0"), val = tensor<int32, [1]>([560])];
            tensor<bool, [1]> var_43_end_mask_0 = const()[name = tensor<string, []>("op_43_end_mask_0"), val = tensor<bool, [1]>([false])];
            tensor<fp32, [400]> var_43 = slice_by_index(begin = var_43_begin_0, end = var_43_end_0, end_mask = var_43_end_mask_0, x = var_21)[name = tensor<string, []>("op_43")];
            tensor<int32, [1]> var_48_begin_0 = const()[name = tensor<string, []>("op_48_begin_0"), val = tensor<int32, [1]>([320])];
            tensor<int32, [1]> var_48_end_0 = const()[name = tensor<string, []>("op_48_end_0"), val = tensor<int32, [1]>([720])];
            tensor<bool, [1]> var_48_end_mask_0 = const()[name = tensor<string, []>("op_48_end_mask_0"), val = tensor<bool, [1]>([false])];
            tensor<fp32, [400]> var_48 = slice_by_index(begin = var_48_begin_0, end = var_48_end_0, end_mask = var_48_end_mask_0, x = var_21)[name = tensor<string, []>("op_48")];
            tensor<int32, [1]> var_53_begin_0 = const()[name = tensor<string, []>("op_53_begin_0"), val = tensor<int32, [1]>([480])];
            tensor<int32, [1]> var_53_end_0 = const()[name = tensor<string, []>("op_53_end_0"), val = tensor<int32, [1]>([880])];
            tensor<bool, [1]> var_53_end_mask_0 = const()[name = tensor<string, []>("op_53_end_mask_0"), val = tensor<bool, [1]>([false])];
            tensor<fp32, [400]> var_53 = slice_by_index(begin = var_53_begin_0, end = var_53_end_0, end_mask = var_53_end_mask_0, x = var_21)[name = tensor<string, []>("op_53")];
            tensor<int32, [1]> var_58_begin_0 = const()[name = tensor<string, []>("op_58_begin_0"), val = tensor<int32, [1]>([640])];
            tensor<int32, [1]> var_58_end_0 = const()[name = tensor<string, []>("op_58_end_0"), val = tensor<int32, [1]>([1040])];
            tensor<bool, [1]> var_58_end_mask_0 = const()[name = tensor<string, []>("op_58_end_mask_0"), val = tensor<bool, [1]>([false])];
            tensor<fp32, [400]> var_58 = slice_by_index(begin = var_58_begin_0, end = var_58_end_0, end_mask = var_58_end_mask_0, x = var_21)[name = tensor<string, []>("op_58")];
            tensor<int32, [1]> var_63_begin_0 = const()[name = tensor<string, []>("op_63_begin_0"), val = tensor<int32, [1]>([800])];
            tensor<int32, [1]> var_63_end_0 = const()[name = tensor<string, []>("op_63_end_0"), val = tensor<int32, [1]>([1200])];
            tensor<bool, [1]> var_63_end_mask_0 = const()[name = tensor<string, []>("op_63_end_mask_0"), val = tensor<bool, [1]>([false])];
            tensor<fp32, [400]> var_63 = slice_by_index(begin = var_63_begin_0, end = var_63_end_0, end_mask = var_63_end_mask_0, x = var_21)[name = tensor<string, []>("op_63")];
            tensor<int32, [1]> var_68_begin_0 = const()[name = tensor<string, []>("op_68_begin_0"), val = tensor<int32, [1]>([960])];
            tensor<int32, [1]> var_68_end_0 = const()[name = tensor<string, []>("op_68_end_0"), val = tensor<int32, [1]>([1360])];
            tensor<bool, [1]> var_68_end_mask_0 = const()[name = tensor<string, []>("op_68_end_mask_0"), val = tensor<bool, [1]>([false])];
            tensor<fp32, [400]> var_68 = slice_by_index(begin = var_68_begin_0, end = var_68_end_0, end_mask = var_68_end_mask_0, x = var_21)[name = tensor<string, []>("op_68")];
            tensor<int32, [1]> var_73_begin_0 = const()[name = tensor<string, []>("op_73_begin_0"), val = tensor<int32, [1]>([1120])];
            tensor<int32, [1]> var_73_end_0 = const()[name = tensor<string, []>("op_73_end_0"), val = tensor<int32, [1]>([1520])];
            tensor<bool, [1]> var_73_end_mask_0 = const()[name = tensor<string, []>("op_73_end_mask_0"), val = tensor<bool, [1]>([false])];
            tensor<fp32, [400]> var_73 = slice_by_index(begin = var_73_begin_0, end = var_73_end_0, end_mask = var_73_end_mask_0, x = var_21)[name = tensor<string, []>("op_73")];
            tensor<int32, [1]> var_78_begin_0 = const()[name = tensor<string, []>("op_78_begin_0"), val = tensor<int32, [1]>([1280])];
            tensor<int32, [1]> var_78_end_0 = const()[name = tensor<string, []>("op_78_end_0"), val = tensor<int32, [1]>([1680])];
            tensor<bool, [1]> var_78_end_mask_0 = const()[name = tensor<string, []>("op_78_end_mask_0"), val = tensor<bool, [1]>([false])];
            tensor<fp32, [400]> var_78 = slice_by_index(begin = var_78_begin_0, end = var_78_end_0, end_mask = var_78_end_mask_0, x = var_21)[name = tensor<string, []>("op_78")];
            tensor<int32, [1]> var_83_begin_0 = const()[name = tensor<string, []>("op_83_begin_0"), val = tensor<int32, [1]>([1440])];
            tensor<int32, [1]> var_83_end_0 = const()[name = tensor<string, []>("op_83_end_0"), val = tensor<int32, [1]>([1840])];
            tensor<bool, [1]> var_83_end_mask_0 = const()[name = tensor<string, []>("op_83_end_mask_0"), val = tensor<bool, [1]>([false])];
            tensor<fp32, [400]> var_83 = slice_by_index(begin = var_83_begin_0, end = var_83_end_0, end_mask = var_83_end_mask_0, x = var_21)[name = tensor<string, []>("op_83")];
            tensor<int32, [1]> var_88_begin_0 = const()[name = tensor<string, []>("op_88_begin_0"), val = tensor<int32, [1]>([1600])];
            tensor<int32, [1]> var_88_end_0 = const()[name = tensor<string, []>("op_88_end_0"), val = tensor<int32, [1]>([2000])];
            tensor<bool, [1]> var_88_end_mask_0 = const()[name = tensor<string, []>("op_88_end_mask_0"), val = tensor<bool, [1]>([false])];
            tensor<fp32, [400]> var_88 = slice_by_index(begin = var_88_begin_0, end = var_88_end_0, end_mask = var_88_end_mask_0, x = var_21)[name = tensor<string, []>("op_88")];
            tensor<int32, [1]> var_93_begin_0 = const()[name = tensor<string, []>("op_93_begin_0"), val = tensor<int32, [1]>([1760])];
            tensor<int32, [1]> var_93_end_0 = const()[name = tensor<string, []>("op_93_end_0"), val = tensor<int32, [1]>([2160])];
            tensor<bool, [1]> var_93_end_mask_0 = const()[name = tensor<string, []>("op_93_end_mask_0"), val = tensor<bool, [1]>([false])];
            tensor<fp32, [400]> var_93 = slice_by_index(begin = var_93_begin_0, end = var_93_end_0, end_mask = var_93_end_mask_0, x = var_21)[name = tensor<string, []>("op_93")];
            tensor<int32, [1]> var_98_begin_0 = const()[name = tensor<string, []>("op_98_begin_0"), val = tensor<int32, [1]>([1920])];
            tensor<int32, [1]> var_98_end_0 = const()[name = tensor<string, []>("op_98_end_0"), val = tensor<int32, [1]>([2320])];
            tensor<bool, [1]> var_98_end_mask_0 = const()[name = tensor<string, []>("op_98_end_mask_0"), val = tensor<bool, [1]>([false])];
            tensor<fp32, [400]> var_98 = slice_by_index(begin = var_98_begin_0, end = var_98_end_0, end_mask = var_98_end_mask_0, x = var_21)[name = tensor<string, []>("op_98")];
            tensor<int32, [1]> var_103_begin_0 = const()[name = tensor<string, []>("op_103_begin_0"), val = tensor<int32, [1]>([2080])];
            tensor<int32, [1]> var_103_end_0 = const()[name = tensor<string, []>("op_103_end_0"), val = tensor<int32, [1]>([2480])];
            tensor<bool, [1]> var_103_end_mask_0 = const()[name = tensor<string, []>("op_103_end_mask_0"), val = tensor<bool, [1]>([false])];
            tensor<fp32, [400]> var_103 = slice_by_index(begin = var_103_begin_0, end = var_103_end_0, end_mask = var_103_end_mask_0, x = var_21)[name = tensor<string, []>("op_103")];
            tensor<int32, [1]> var_108_begin_0 = const()[name = tensor<string, []>("op_108_begin_0"), val = tensor<int32, [1]>([2240])];
            tensor<int32, [1]> var_108_end_0 = const()[name = tensor<string, []>("op_108_end_0"), val = tensor<int32, [1]>([2640])];
            tensor<bool, [1]> var_108_end_mask_0 = const()[name = tensor<string, []>("op_108_end_mask_0"), val = tensor<bool, [1]>([false])];
            tensor<fp32, [400]> var_108 = slice_by_index(begin = var_108_begin_0, end = var_108_end_0, end_mask = var_108_end_mask_0, x = var_21)[name = tensor<string, []>("op_108")];
            tensor<int32, [1]> var_113_begin_0 = const()[name = tensor<string, []>("op_113_begin_0"), val = tensor<int32, [1]>([2400])];
            tensor<int32, [1]> var_113_end_0 = const()[name = tensor<string, []>("op_113_end_0"), val = tensor<int32, [1]>([2800])];
            tensor<bool, [1]> var_113_end_mask_0 = const()[name = tensor<string, []>("op_113_end_mask_0"), val = tensor<bool, [1]>([false])];
            tensor<fp32, [400]> var_113 = slice_by_index(begin = var_113_begin_0, end = var_113_end_0, end_mask = var_113_end_mask_0, x = var_21)[name = tensor<string, []>("op_113")];
            tensor<int32, [1]> var_118_begin_0 = const()[name = tensor<string, []>("op_118_begin_0"), val = tensor<int32, [1]>([2560])];
            tensor<int32, [1]> var_118_end_0 = const()[name = tensor<string, []>("op_118_end_0"), val = tensor<int32, [1]>([2960])];
            tensor<bool, [1]> var_118_end_mask_0 = const()[name = tensor<string, []>("op_118_end_mask_0"), val = tensor<bool, [1]>([false])];
            tensor<fp32, [400]> var_118 = slice_by_index(begin = var_118_begin_0, end = var_118_end_0, end_mask = var_118_end_mask_0, x = var_21)[name = tensor<string, []>("op_118")];
            tensor<int32, [1]> var_123_begin_0 = const()[name = tensor<string, []>("op_123_begin_0"), val = tensor<int32, [1]>([2720])];
            tensor<int32, [1]> var_123_end_0 = const()[name = tensor<string, []>("op_123_end_0"), val = tensor<int32, [1]>([3120])];
            tensor<bool, [1]> var_123_end_mask_0 = const()[name = tensor<string, []>("op_123_end_mask_0"), val = tensor<bool, [1]>([false])];
            tensor<fp32, [400]> var_123 = slice_by_index(begin = var_123_begin_0, end = var_123_end_0, end_mask = var_123_end_mask_0, x = var_21)[name = tensor<string, []>("op_123")];
            tensor<int32, [1]> var_128_begin_0 = const()[name = tensor<string, []>("op_128_begin_0"), val = tensor<int32, [1]>([2880])];
            tensor<int32, [1]> var_128_end_0 = const()[name = tensor<string, []>("op_128_end_0"), val = tensor<int32, [1]>([3280])];
            tensor<bool, [1]> var_128_end_mask_0 = const()[name = tensor<string, []>("op_128_end_mask_0"), val = tensor<bool, [1]>([false])];
            tensor<fp32, [400]> var_128 = slice_by_index(begin = var_128_begin_0, end = var_128_end_0, end_mask = var_128_end_mask_0, x = var_21)[name = tensor<string, []>("op_128")];
            tensor<int32, [1]> var_133_begin_0 = const()[name = tensor<string, []>("op_133_begin_0"), val = tensor<int32, [1]>([3040])];
            tensor<int32, [1]> var_133_end_0 = const()[name = tensor<string, []>("op_133_end_0"), val = tensor<int32, [1]>([3440])];
            tensor<bool, [1]> var_133_end_mask_0 = const()[name = tensor<string, []>("op_133_end_mask_0"), val = tensor<bool, [1]>([false])];
            tensor<fp32, [400]> var_133 = slice_by_index(begin = var_133_begin_0, end = var_133_end_0, end_mask = var_133_end_mask_0, x = var_21)[name = tensor<string, []>("op_133")];
            tensor<int32, [1]> var_138_begin_0 = const()[name = tensor<string, []>("op_138_begin_0"), val = tensor<int32, [1]>([3200])];
            tensor<int32, [1]> var_138_end_0 = const()[name = tensor<string, []>("op_138_end_0"), val = tensor<int32, [1]>([3600])];
            tensor<bool, [1]> var_138_end_mask_0 = const()[name = tensor<string, []>("op_138_end_mask_0"), val = tensor<bool, [1]>([false])];
            tensor<fp32, [400]> var_138 = slice_by_index(begin = var_138_begin_0, end = var_138_end_0, end_mask = var_138_end_mask_0, x = var_21)[name = tensor<string, []>("op_138")];
            tensor<int32, [1]> var_143_begin_0 = const()[name = tensor<string, []>("op_143_begin_0"), val = tensor<int32, [1]>([3360])];
            tensor<int32, [1]> var_143_end_0 = const()[name = tensor<string, []>("op_143_end_0"), val = tensor<int32, [1]>([3760])];
            tensor<bool, [1]> var_143_end_mask_0 = const()[name = tensor<string, []>("op_143_end_mask_0"), val = tensor<bool, [1]>([false])];
            tensor<fp32, [400]> var_143 = slice_by_index(begin = var_143_begin_0, end = var_143_end_0, end_mask = var_143_end_mask_0, x = var_21)[name = tensor<string, []>("op_143")];
            tensor<int32, [1]> var_148_begin_0 = const()[name = tensor<string, []>("op_148_begin_0"), val = tensor<int32, [1]>([3520])];
            tensor<int32, [1]> var_148_end_0 = const()[name = tensor<string, []>("op_148_end_0"), val = tensor<int32, [1]>([3920])];
            tensor<bool, [1]> var_148_end_mask_0 = const()[name = tensor<string, []>("op_148_end_mask_0"), val = tensor<bool, [1]>([false])];
            tensor<fp32, [400]> var_148 = slice_by_index(begin = var_148_begin_0, end = var_148_end_0, end_mask = var_148_end_mask_0, x = var_21)[name = tensor<string, []>("op_148")];
            tensor<int32, [1]> var_153_begin_0 = const()[name = tensor<string, []>("op_153_begin_0"), val = tensor<int32, [1]>([3680])];
            tensor<int32, [1]> var_153_end_0 = const()[name = tensor<string, []>("op_153_end_0"), val = tensor<int32, [1]>([4080])];
            tensor<bool, [1]> var_153_end_mask_0 = const()[name = tensor<string, []>("op_153_end_mask_0"), val = tensor<bool, [1]>([false])];
            tensor<fp32, [400]> var_153 = slice_by_index(begin = var_153_begin_0, end = var_153_end_0, end_mask = var_153_end_mask_0, x = var_21)[name = tensor<string, []>("op_153")];
            tensor<int32, [1]> var_158_begin_0 = const()[name = tensor<string, []>("op_158_begin_0"), val = tensor<int32, [1]>([3840])];
            tensor<int32, [1]> var_158_end_0 = const()[name = tensor<string, []>("op_158_end_0"), val = tensor<int32, [1]>([4240])];
            tensor<bool, [1]> var_158_end_mask_0 = const()[name = tensor<string, []>("op_158_end_mask_0"), val = tensor<bool, [1]>([false])];
            tensor<fp32, [400]> var_158 = slice_by_index(begin = var_158_begin_0, end = var_158_end_0, end_mask = var_158_end_mask_0, x = var_21)[name = tensor<string, []>("op_158")];
            tensor<int32, [1]> var_163_begin_0 = const()[name = tensor<string, []>("op_163_begin_0"), val = tensor<int32, [1]>([4000])];
            tensor<int32, [1]> var_163_end_0 = const()[name = tensor<string, []>("op_163_end_0"), val = tensor<int32, [1]>([4400])];
            tensor<bool, [1]> var_163_end_mask_0 = const()[name = tensor<string, []>("op_163_end_mask_0"), val = tensor<bool, [1]>([false])];
            tensor<fp32, [400]> var_163 = slice_by_index(begin = var_163_begin_0, end = var_163_end_0, end_mask = var_163_end_mask_0, x = var_21)[name = tensor<string, []>("op_163")];
            tensor<int32, [1]> var_168_begin_0 = const()[name = tensor<string, []>("op_168_begin_0"), val = tensor<int32, [1]>([4160])];
            tensor<int32, [1]> var_168_end_0 = const()[name = tensor<string, []>("op_168_end_0"), val = tensor<int32, [1]>([4560])];
            tensor<bool, [1]> var_168_end_mask_0 = const()[name = tensor<string, []>("op_168_end_mask_0"), val = tensor<bool, [1]>([false])];
            tensor<fp32, [400]> var_168 = slice_by_index(begin = var_168_begin_0, end = var_168_end_0, end_mask = var_168_end_mask_0, x = var_21)[name = tensor<string, []>("op_168")];
            tensor<int32, [1]> var_173_begin_0 = const()[name = tensor<string, []>("op_173_begin_0"), val = tensor<int32, [1]>([4320])];
            tensor<int32, [1]> var_173_end_0 = const()[name = tensor<string, []>("op_173_end_0"), val = tensor<int32, [1]>([4720])];
            tensor<bool, [1]> var_173_end_mask_0 = const()[name = tensor<string, []>("op_173_end_mask_0"), val = tensor<bool, [1]>([false])];
            tensor<fp32, [400]> var_173 = slice_by_index(begin = var_173_begin_0, end = var_173_end_0, end_mask = var_173_end_mask_0, x = var_21)[name = tensor<string, []>("op_173")];
            tensor<int32, [1]> var_178_begin_0 = const()[name = tensor<string, []>("op_178_begin_0"), val = tensor<int32, [1]>([4480])];
            tensor<int32, [1]> var_178_end_0 = const()[name = tensor<string, []>("op_178_end_0"), val = tensor<int32, [1]>([4880])];
            tensor<bool, [1]> var_178_end_mask_0 = const()[name = tensor<string, []>("op_178_end_mask_0"), val = tensor<bool, [1]>([false])];
            tensor<fp32, [400]> var_178 = slice_by_index(begin = var_178_begin_0, end = var_178_end_0, end_mask = var_178_end_mask_0, x = var_21)[name = tensor<string, []>("op_178")];
            tensor<int32, [1]> var_183_begin_0 = const()[name = tensor<string, []>("op_183_begin_0"), val = tensor<int32, [1]>([4640])];
            tensor<int32, [1]> var_183_end_0 = const()[name = tensor<string, []>("op_183_end_0"), val = tensor<int32, [1]>([5040])];
            tensor<bool, [1]> var_183_end_mask_0 = const()[name = tensor<string, []>("op_183_end_mask_0"), val = tensor<bool, [1]>([false])];
            tensor<fp32, [400]> var_183 = slice_by_index(begin = var_183_begin_0, end = var_183_end_0, end_mask = var_183_end_mask_0, x = var_21)[name = tensor<string, []>("op_183")];
            tensor<int32, [1]> var_188_begin_0 = const()[name = tensor<string, []>("op_188_begin_0"), val = tensor<int32, [1]>([4800])];
            tensor<int32, [1]> var_188_end_0 = const()[name = tensor<string, []>("op_188_end_0"), val = tensor<int32, [1]>([5200])];
            tensor<bool, [1]> var_188_end_mask_0 = const()[name = tensor<string, []>("op_188_end_mask_0"), val = tensor<bool, [1]>([false])];
            tensor<fp32, [400]> var_188 = slice_by_index(begin = var_188_begin_0, end = var_188_end_0, end_mask = var_188_end_mask_0, x = var_21)[name = tensor<string, []>("op_188")];
            tensor<int32, [1]> var_193_begin_0 = const()[name = tensor<string, []>("op_193_begin_0"), val = tensor<int32, [1]>([4960])];
            tensor<int32, [1]> var_193_end_0 = const()[name = tensor<string, []>("op_193_end_0"), val = tensor<int32, [1]>([5360])];
            tensor<bool, [1]> var_193_end_mask_0 = const()[name = tensor<string, []>("op_193_end_mask_0"), val = tensor<bool, [1]>([false])];
            tensor<fp32, [400]> var_193 = slice_by_index(begin = var_193_begin_0, end = var_193_end_0, end_mask = var_193_end_mask_0, x = var_21)[name = tensor<string, []>("op_193")];
            tensor<int32, [1]> var_198_begin_0 = const()[name = tensor<string, []>("op_198_begin_0"), val = tensor<int32, [1]>([5120])];
            tensor<int32, [1]> var_198_end_0 = const()[name = tensor<string, []>("op_198_end_0"), val = tensor<int32, [1]>([5520])];
            tensor<bool, [1]> var_198_end_mask_0 = const()[name = tensor<string, []>("op_198_end_mask_0"), val = tensor<bool, [1]>([false])];
            tensor<fp32, [400]> var_198 = slice_by_index(begin = var_198_begin_0, end = var_198_end_0, end_mask = var_198_end_mask_0, x = var_21)[name = tensor<string, []>("op_198")];
            tensor<int32, [1]> var_203_begin_0 = const()[name = tensor<string, []>("op_203_begin_0"), val = tensor<int32, [1]>([5280])];
            tensor<int32, [1]> var_203_end_0 = const()[name = tensor<string, []>("op_203_end_0"), val = tensor<int32, [1]>([5680])];
            tensor<bool, [1]> var_203_end_mask_0 = const()[name = tensor<string, []>("op_203_end_mask_0"), val = tensor<bool, [1]>([false])];
            tensor<fp32, [400]> var_203 = slice_by_index(begin = var_203_begin_0, end = var_203_end_0, end_mask = var_203_end_mask_0, x = var_21)[name = tensor<string, []>("op_203")];
            tensor<int32, [1]> var_208_begin_0 = const()[name = tensor<string, []>("op_208_begin_0"), val = tensor<int32, [1]>([5440])];
            tensor<int32, [1]> var_208_end_0 = const()[name = tensor<string, []>("op_208_end_0"), val = tensor<int32, [1]>([5840])];
            tensor<bool, [1]> var_208_end_mask_0 = const()[name = tensor<string, []>("op_208_end_mask_0"), val = tensor<bool, [1]>([false])];
            tensor<fp32, [400]> var_208 = slice_by_index(begin = var_208_begin_0, end = var_208_end_0, end_mask = var_208_end_mask_0, x = var_21)[name = tensor<string, []>("op_208")];
            tensor<int32, [1]> var_213_begin_0 = const()[name = tensor<string, []>("op_213_begin_0"), val = tensor<int32, [1]>([5600])];
            tensor<int32, [1]> var_213_end_0 = const()[name = tensor<string, []>("op_213_end_0"), val = tensor<int32, [1]>([6000])];
            tensor<bool, [1]> var_213_end_mask_0 = const()[name = tensor<string, []>("op_213_end_mask_0"), val = tensor<bool, [1]>([false])];
            tensor<fp32, [400]> var_213 = slice_by_index(begin = var_213_begin_0, end = var_213_end_0, end_mask = var_213_end_mask_0, x = var_21)[name = tensor<string, []>("op_213")];
            tensor<int32, [1]> var_218_begin_0 = const()[name = tensor<string, []>("op_218_begin_0"), val = tensor<int32, [1]>([5760])];
            tensor<int32, [1]> var_218_end_0 = const()[name = tensor<string, []>("op_218_end_0"), val = tensor<int32, [1]>([6160])];
            tensor<bool, [1]> var_218_end_mask_0 = const()[name = tensor<string, []>("op_218_end_mask_0"), val = tensor<bool, [1]>([false])];
            tensor<fp32, [400]> var_218 = slice_by_index(begin = var_218_begin_0, end = var_218_end_0, end_mask = var_218_end_mask_0, x = var_21)[name = tensor<string, []>("op_218")];
            tensor<int32, [1]> var_223_begin_0 = const()[name = tensor<string, []>("op_223_begin_0"), val = tensor<int32, [1]>([5920])];
            tensor<int32, [1]> var_223_end_0 = const()[name = tensor<string, []>("op_223_end_0"), val = tensor<int32, [1]>([6320])];
            tensor<bool, [1]> var_223_end_mask_0 = const()[name = tensor<string, []>("op_223_end_mask_0"), val = tensor<bool, [1]>([false])];
            tensor<fp32, [400]> var_223 = slice_by_index(begin = var_223_begin_0, end = var_223_end_0, end_mask = var_223_end_mask_0, x = var_21)[name = tensor<string, []>("op_223")];
            tensor<int32, [1]> var_228_begin_0 = const()[name = tensor<string, []>("op_228_begin_0"), val = tensor<int32, [1]>([6080])];
            tensor<int32, [1]> var_228_end_0 = const()[name = tensor<string, []>("op_228_end_0"), val = tensor<int32, [1]>([6480])];
            tensor<bool, [1]> var_228_end_mask_0 = const()[name = tensor<string, []>("op_228_end_mask_0"), val = tensor<bool, [1]>([false])];
            tensor<fp32, [400]> var_228 = slice_by_index(begin = var_228_begin_0, end = var_228_end_0, end_mask = var_228_end_mask_0, x = var_21)[name = tensor<string, []>("op_228")];
            tensor<int32, [1]> var_233_begin_0 = const()[name = tensor<string, []>("op_233_begin_0"), val = tensor<int32, [1]>([6240])];
            tensor<int32, [1]> var_233_end_0 = const()[name = tensor<string, []>("op_233_end_0"), val = tensor<int32, [1]>([6640])];
            tensor<bool, [1]> var_233_end_mask_0 = const()[name = tensor<string, []>("op_233_end_mask_0"), val = tensor<bool, [1]>([false])];
            tensor<fp32, [400]> var_233 = slice_by_index(begin = var_233_begin_0, end = var_233_end_0, end_mask = var_233_end_mask_0, x = var_21)[name = tensor<string, []>("op_233")];
            tensor<int32, [1]> var_238_begin_0 = const()[name = tensor<string, []>("op_238_begin_0"), val = tensor<int32, [1]>([6400])];
            tensor<int32, [1]> var_238_end_0 = const()[name = tensor<string, []>("op_238_end_0"), val = tensor<int32, [1]>([6800])];
            tensor<bool, [1]> var_238_end_mask_0 = const()[name = tensor<string, []>("op_238_end_mask_0"), val = tensor<bool, [1]>([false])];
            tensor<fp32, [400]> var_238 = slice_by_index(begin = var_238_begin_0, end = var_238_end_0, end_mask = var_238_end_mask_0, x = var_21)[name = tensor<string, []>("op_238")];
            tensor<int32, [1]> var_243_begin_0 = const()[name = tensor<string, []>("op_243_begin_0"), val = tensor<int32, [1]>([6560])];
            tensor<int32, [1]> var_243_end_0 = const()[name = tensor<string, []>("op_243_end_0"), val = tensor<int32, [1]>([6960])];
            tensor<bool, [1]> var_243_end_mask_0 = const()[name = tensor<string, []>("op_243_end_mask_0"), val = tensor<bool, [1]>([false])];
            tensor<fp32, [400]> var_243 = slice_by_index(begin = var_243_begin_0, end = var_243_end_0, end_mask = var_243_end_mask_0, x = var_21)[name = tensor<string, []>("op_243")];
            tensor<int32, [1]> var_248_begin_0 = const()[name = tensor<string, []>("op_248_begin_0"), val = tensor<int32, [1]>([6720])];
            tensor<int32, [1]> var_248_end_0 = const()[name = tensor<string, []>("op_248_end_0"), val = tensor<int32, [1]>([7120])];
            tensor<bool, [1]> var_248_end_mask_0 = const()[name = tensor<string, []>("op_248_end_mask_0"), val = tensor<bool, [1]>([false])];
            tensor<fp32, [400]> var_248 = slice_by_index(begin = var_248_begin_0, end = var_248_end_0, end_mask = var_248_end_mask_0, x = var_21)[name = tensor<string, []>("op_248")];
            tensor<int32, [1]> var_253_begin_0 = const()[name = tensor<string, []>("op_253_begin_0"), val = tensor<int32, [1]>([6880])];
            tensor<int32, [1]> var_253_end_0 = const()[name = tensor<string, []>("op_253_end_0"), val = tensor<int32, [1]>([7280])];
            tensor<bool, [1]> var_253_end_mask_0 = const()[name = tensor<string, []>("op_253_end_mask_0"), val = tensor<bool, [1]>([false])];
            tensor<fp32, [400]> var_253 = slice_by_index(begin = var_253_begin_0, end = var_253_end_0, end_mask = var_253_end_mask_0, x = var_21)[name = tensor<string, []>("op_253")];
            tensor<int32, [1]> var_258_begin_0 = const()[name = tensor<string, []>("op_258_begin_0"), val = tensor<int32, [1]>([7040])];
            tensor<int32, [1]> var_258_end_0 = const()[name = tensor<string, []>("op_258_end_0"), val = tensor<int32, [1]>([7440])];
            tensor<bool, [1]> var_258_end_mask_0 = const()[name = tensor<string, []>("op_258_end_mask_0"), val = tensor<bool, [1]>([false])];
            tensor<fp32, [400]> var_258 = slice_by_index(begin = var_258_begin_0, end = var_258_end_0, end_mask = var_258_end_mask_0, x = var_21)[name = tensor<string, []>("op_258")];
            tensor<int32, [1]> var_263_begin_0 = const()[name = tensor<string, []>("op_263_begin_0"), val = tensor<int32, [1]>([7200])];
            tensor<int32, [1]> var_263_end_0 = const()[name = tensor<string, []>("op_263_end_0"), val = tensor<int32, [1]>([7600])];
            tensor<bool, [1]> var_263_end_mask_0 = const()[name = tensor<string, []>("op_263_end_mask_0"), val = tensor<bool, [1]>([false])];
            tensor<fp32, [400]> var_263 = slice_by_index(begin = var_263_begin_0, end = var_263_end_0, end_mask = var_263_end_mask_0, x = var_21)[name = tensor<string, []>("op_263")];
            tensor<int32, [1]> var_268_begin_0 = const()[name = tensor<string, []>("op_268_begin_0"), val = tensor<int32, [1]>([7360])];
            tensor<int32, [1]> var_268_end_0 = const()[name = tensor<string, []>("op_268_end_0"), val = tensor<int32, [1]>([7760])];
            tensor<bool, [1]> var_268_end_mask_0 = const()[name = tensor<string, []>("op_268_end_mask_0"), val = tensor<bool, [1]>([false])];
            tensor<fp32, [400]> var_268 = slice_by_index(begin = var_268_begin_0, end = var_268_end_0, end_mask = var_268_end_mask_0, x = var_21)[name = tensor<string, []>("op_268")];
            tensor<int32, [1]> var_273_begin_0 = const()[name = tensor<string, []>("op_273_begin_0"), val = tensor<int32, [1]>([7520])];
            tensor<int32, [1]> var_273_end_0 = const()[name = tensor<string, []>("op_273_end_0"), val = tensor<int32, [1]>([7920])];
            tensor<bool, [1]> var_273_end_mask_0 = const()[name = tensor<string, []>("op_273_end_mask_0"), val = tensor<bool, [1]>([false])];
            tensor<fp32, [400]> var_273 = slice_by_index(begin = var_273_begin_0, end = var_273_end_0, end_mask = var_273_end_mask_0, x = var_21)[name = tensor<string, []>("op_273")];
            tensor<int32, [1]> var_278_begin_0 = const()[name = tensor<string, []>("op_278_begin_0"), val = tensor<int32, [1]>([7680])];
            tensor<int32, [1]> var_278_end_0 = const()[name = tensor<string, []>("op_278_end_0"), val = tensor<int32, [1]>([8080])];
            tensor<bool, [1]> var_278_end_mask_0 = const()[name = tensor<string, []>("op_278_end_mask_0"), val = tensor<bool, [1]>([false])];
            tensor<fp32, [400]> var_278 = slice_by_index(begin = var_278_begin_0, end = var_278_end_0, end_mask = var_278_end_mask_0, x = var_21)[name = tensor<string, []>("op_278")];
            tensor<int32, [1]> var_283_begin_0 = const()[name = tensor<string, []>("op_283_begin_0"), val = tensor<int32, [1]>([7840])];
            tensor<int32, [1]> var_283_end_0 = const()[name = tensor<string, []>("op_283_end_0"), val = tensor<int32, [1]>([8240])];
            tensor<bool, [1]> var_283_end_mask_0 = const()[name = tensor<string, []>("op_283_end_mask_0"), val = tensor<bool, [1]>([false])];
            tensor<fp32, [400]> var_283 = slice_by_index(begin = var_283_begin_0, end = var_283_end_0, end_mask = var_283_end_mask_0, x = var_21)[name = tensor<string, []>("op_283")];
            tensor<int32, [1]> var_288_begin_0 = const()[name = tensor<string, []>("op_288_begin_0"), val = tensor<int32, [1]>([8000])];
            tensor<int32, [1]> var_288_end_0 = const()[name = tensor<string, []>("op_288_end_0"), val = tensor<int32, [1]>([8400])];
            tensor<bool, [1]> var_288_end_mask_0 = const()[name = tensor<string, []>("op_288_end_mask_0"), val = tensor<bool, [1]>([false])];
            tensor<fp32, [400]> var_288 = slice_by_index(begin = var_288_begin_0, end = var_288_end_0, end_mask = var_288_end_mask_0, x = var_21)[name = tensor<string, []>("op_288")];
            tensor<int32, [1]> var_293_begin_0 = const()[name = tensor<string, []>("op_293_begin_0"), val = tensor<int32, [1]>([8160])];
            tensor<int32, [1]> var_293_end_0 = const()[name = tensor<string, []>("op_293_end_0"), val = tensor<int32, [1]>([8560])];
            tensor<bool, [1]> var_293_end_mask_0 = const()[name = tensor<string, []>("op_293_end_mask_0"), val = tensor<bool, [1]>([false])];
            tensor<fp32, [400]> var_293 = slice_by_index(begin = var_293_begin_0, end = var_293_end_0, end_mask = var_293_end_mask_0, x = var_21)[name = tensor<string, []>("op_293")];
            tensor<int32, [1]> var_298_begin_0 = const()[name = tensor<string, []>("op_298_begin_0"), val = tensor<int32, [1]>([8320])];
            tensor<int32, [1]> var_298_end_0 = const()[name = tensor<string, []>("op_298_end_0"), val = tensor<int32, [1]>([8720])];
            tensor<bool, [1]> var_298_end_mask_0 = const()[name = tensor<string, []>("op_298_end_mask_0"), val = tensor<bool, [1]>([false])];
            tensor<fp32, [400]> var_298 = slice_by_index(begin = var_298_begin_0, end = var_298_end_0, end_mask = var_298_end_mask_0, x = var_21)[name = tensor<string, []>("op_298")];
            tensor<int32, [1]> var_303_begin_0 = const()[name = tensor<string, []>("op_303_begin_0"), val = tensor<int32, [1]>([8480])];
            tensor<int32, [1]> var_303_end_0 = const()[name = tensor<string, []>("op_303_end_0"), val = tensor<int32, [1]>([8880])];
            tensor<bool, [1]> var_303_end_mask_0 = const()[name = tensor<string, []>("op_303_end_mask_0"), val = tensor<bool, [1]>([false])];
            tensor<fp32, [400]> var_303 = slice_by_index(begin = var_303_begin_0, end = var_303_end_0, end_mask = var_303_end_mask_0, x = var_21)[name = tensor<string, []>("op_303")];
            tensor<int32, [1]> var_308_begin_0 = const()[name = tensor<string, []>("op_308_begin_0"), val = tensor<int32, [1]>([8640])];
            tensor<int32, [1]> var_308_end_0 = const()[name = tensor<string, []>("op_308_end_0"), val = tensor<int32, [1]>([9040])];
            tensor<bool, [1]> var_308_end_mask_0 = const()[name = tensor<string, []>("op_308_end_mask_0"), val = tensor<bool, [1]>([false])];
            tensor<fp32, [400]> var_308 = slice_by_index(begin = var_308_begin_0, end = var_308_end_0, end_mask = var_308_end_mask_0, x = var_21)[name = tensor<string, []>("op_308")];
            tensor<int32, [1]> var_313_begin_0 = const()[name = tensor<string, []>("op_313_begin_0"), val = tensor<int32, [1]>([8800])];
            tensor<int32, [1]> var_313_end_0 = const()[name = tensor<string, []>("op_313_end_0"), val = tensor<int32, [1]>([9200])];
            tensor<bool, [1]> var_313_end_mask_0 = const()[name = tensor<string, []>("op_313_end_mask_0"), val = tensor<bool, [1]>([false])];
            tensor<fp32, [400]> var_313 = slice_by_index(begin = var_313_begin_0, end = var_313_end_0, end_mask = var_313_end_mask_0, x = var_21)[name = tensor<string, []>("op_313")];
            tensor<int32, [1]> var_318_begin_0 = const()[name = tensor<string, []>("op_318_begin_0"), val = tensor<int32, [1]>([8960])];
            tensor<int32, [1]> var_318_end_0 = const()[name = tensor<string, []>("op_318_end_0"), val = tensor<int32, [1]>([9360])];
            tensor<bool, [1]> var_318_end_mask_0 = const()[name = tensor<string, []>("op_318_end_mask_0"), val = tensor<bool, [1]>([false])];
            tensor<fp32, [400]> var_318 = slice_by_index(begin = var_318_begin_0, end = var_318_end_0, end_mask = var_318_end_mask_0, x = var_21)[name = tensor<string, []>("op_318")];
            tensor<int32, [1]> var_323_begin_0 = const()[name = tensor<string, []>("op_323_begin_0"), val = tensor<int32, [1]>([9120])];
            tensor<int32, [1]> var_323_end_0 = const()[name = tensor<string, []>("op_323_end_0"), val = tensor<int32, [1]>([9520])];
            tensor<bool, [1]> var_323_end_mask_0 = const()[name = tensor<string, []>("op_323_end_mask_0"), val = tensor<bool, [1]>([false])];
            tensor<fp32, [400]> var_323 = slice_by_index(begin = var_323_begin_0, end = var_323_end_0, end_mask = var_323_end_mask_0, x = var_21)[name = tensor<string, []>("op_323")];
            tensor<int32, [1]> var_328_begin_0 = const()[name = tensor<string, []>("op_328_begin_0"), val = tensor<int32, [1]>([9280])];
            tensor<int32, [1]> var_328_end_0 = const()[name = tensor<string, []>("op_328_end_0"), val = tensor<int32, [1]>([9680])];
            tensor<bool, [1]> var_328_end_mask_0 = const()[name = tensor<string, []>("op_328_end_mask_0"), val = tensor<bool, [1]>([false])];
            tensor<fp32, [400]> var_328 = slice_by_index(begin = var_328_begin_0, end = var_328_end_0, end_mask = var_328_end_mask_0, x = var_21)[name = tensor<string, []>("op_328")];
            tensor<int32, [1]> var_333_begin_0 = const()[name = tensor<string, []>("op_333_begin_0"), val = tensor<int32, [1]>([9440])];
            tensor<int32, [1]> var_333_end_0 = const()[name = tensor<string, []>("op_333_end_0"), val = tensor<int32, [1]>([9840])];
            tensor<bool, [1]> var_333_end_mask_0 = const()[name = tensor<string, []>("op_333_end_mask_0"), val = tensor<bool, [1]>([false])];
            tensor<fp32, [400]> var_333 = slice_by_index(begin = var_333_begin_0, end = var_333_end_0, end_mask = var_333_end_mask_0, x = var_21)[name = tensor<string, []>("op_333")];
            tensor<int32, [1]> var_338_begin_0 = const()[name = tensor<string, []>("op_338_begin_0"), val = tensor<int32, [1]>([9600])];
            tensor<int32, [1]> var_338_end_0 = const()[name = tensor<string, []>("op_338_end_0"), val = tensor<int32, [1]>([10000])];
            tensor<bool, [1]> var_338_end_mask_0 = const()[name = tensor<string, []>("op_338_end_mask_0"), val = tensor<bool, [1]>([false])];
            tensor<fp32, [400]> var_338 = slice_by_index(begin = var_338_begin_0, end = var_338_end_0, end_mask = var_338_end_mask_0, x = var_21)[name = tensor<string, []>("op_338")];
            tensor<int32, [1]> var_343_begin_0 = const()[name = tensor<string, []>("op_343_begin_0"), val = tensor<int32, [1]>([9760])];
            tensor<int32, [1]> var_343_end_0 = const()[name = tensor<string, []>("op_343_end_0"), val = tensor<int32, [1]>([10160])];
            tensor<bool, [1]> var_343_end_mask_0 = const()[name = tensor<string, []>("op_343_end_mask_0"), val = tensor<bool, [1]>([false])];
            tensor<fp32, [400]> var_343 = slice_by_index(begin = var_343_begin_0, end = var_343_end_0, end_mask = var_343_end_mask_0, x = var_21)[name = tensor<string, []>("op_343")];
            tensor<int32, [1]> var_348_begin_0 = const()[name = tensor<string, []>("op_348_begin_0"), val = tensor<int32, [1]>([9920])];
            tensor<int32, [1]> var_348_end_0 = const()[name = tensor<string, []>("op_348_end_0"), val = tensor<int32, [1]>([10320])];
            tensor<bool, [1]> var_348_end_mask_0 = const()[name = tensor<string, []>("op_348_end_mask_0"), val = tensor<bool, [1]>([false])];
            tensor<fp32, [400]> var_348 = slice_by_index(begin = var_348_begin_0, end = var_348_end_0, end_mask = var_348_end_mask_0, x = var_21)[name = tensor<string, []>("op_348")];
            tensor<int32, [1]> var_353_begin_0 = const()[name = tensor<string, []>("op_353_begin_0"), val = tensor<int32, [1]>([10080])];
            tensor<int32, [1]> var_353_end_0 = const()[name = tensor<string, []>("op_353_end_0"), val = tensor<int32, [1]>([10480])];
            tensor<bool, [1]> var_353_end_mask_0 = const()[name = tensor<string, []>("op_353_end_mask_0"), val = tensor<bool, [1]>([false])];
            tensor<fp32, [400]> var_353 = slice_by_index(begin = var_353_begin_0, end = var_353_end_0, end_mask = var_353_end_mask_0, x = var_21)[name = tensor<string, []>("op_353")];
            tensor<int32, [1]> var_358_begin_0 = const()[name = tensor<string, []>("op_358_begin_0"), val = tensor<int32, [1]>([10240])];
            tensor<int32, [1]> var_358_end_0 = const()[name = tensor<string, []>("op_358_end_0"), val = tensor<int32, [1]>([10640])];
            tensor<bool, [1]> var_358_end_mask_0 = const()[name = tensor<string, []>("op_358_end_mask_0"), val = tensor<bool, [1]>([false])];
            tensor<fp32, [400]> var_358 = slice_by_index(begin = var_358_begin_0, end = var_358_end_0, end_mask = var_358_end_mask_0, x = var_21)[name = tensor<string, []>("op_358")];
            tensor<int32, [1]> var_363_begin_0 = const()[name = tensor<string, []>("op_363_begin_0"), val = tensor<int32, [1]>([10400])];
            tensor<int32, [1]> var_363_end_0 = const()[name = tensor<string, []>("op_363_end_0"), val = tensor<int32, [1]>([10800])];
            tensor<bool, [1]> var_363_end_mask_0 = const()[name = tensor<string, []>("op_363_end_mask_0"), val = tensor<bool, [1]>([false])];
            tensor<fp32, [400]> var_363 = slice_by_index(begin = var_363_begin_0, end = var_363_end_0, end_mask = var_363_end_mask_0, x = var_21)[name = tensor<string, []>("op_363")];
            tensor<int32, [1]> var_368_begin_0 = const()[name = tensor<string, []>("op_368_begin_0"), val = tensor<int32, [1]>([10560])];
            tensor<int32, [1]> var_368_end_0 = const()[name = tensor<string, []>("op_368_end_0"), val = tensor<int32, [1]>([10960])];
            tensor<bool, [1]> var_368_end_mask_0 = const()[name = tensor<string, []>("op_368_end_mask_0"), val = tensor<bool, [1]>([false])];
            tensor<fp32, [400]> var_368 = slice_by_index(begin = var_368_begin_0, end = var_368_end_0, end_mask = var_368_end_mask_0, x = var_21)[name = tensor<string, []>("op_368")];
            tensor<int32, [1]> var_373_begin_0 = const()[name = tensor<string, []>("op_373_begin_0"), val = tensor<int32, [1]>([10720])];
            tensor<int32, [1]> var_373_end_0 = const()[name = tensor<string, []>("op_373_end_0"), val = tensor<int32, [1]>([11120])];
            tensor<bool, [1]> var_373_end_mask_0 = const()[name = tensor<string, []>("op_373_end_mask_0"), val = tensor<bool, [1]>([false])];
            tensor<fp32, [400]> var_373 = slice_by_index(begin = var_373_begin_0, end = var_373_end_0, end_mask = var_373_end_mask_0, x = var_21)[name = tensor<string, []>("op_373")];
            tensor<int32, [1]> var_378_begin_0 = const()[name = tensor<string, []>("op_378_begin_0"), val = tensor<int32, [1]>([10880])];
            tensor<int32, [1]> var_378_end_0 = const()[name = tensor<string, []>("op_378_end_0"), val = tensor<int32, [1]>([11280])];
            tensor<bool, [1]> var_378_end_mask_0 = const()[name = tensor<string, []>("op_378_end_mask_0"), val = tensor<bool, [1]>([false])];
            tensor<fp32, [400]> var_378 = slice_by_index(begin = var_378_begin_0, end = var_378_end_0, end_mask = var_378_end_mask_0, x = var_21)[name = tensor<string, []>("op_378")];
            tensor<int32, [1]> var_383_begin_0 = const()[name = tensor<string, []>("op_383_begin_0"), val = tensor<int32, [1]>([11040])];
            tensor<int32, [1]> var_383_end_0 = const()[name = tensor<string, []>("op_383_end_0"), val = tensor<int32, [1]>([11440])];
            tensor<bool, [1]> var_383_end_mask_0 = const()[name = tensor<string, []>("op_383_end_mask_0"), val = tensor<bool, [1]>([false])];
            tensor<fp32, [400]> var_383 = slice_by_index(begin = var_383_begin_0, end = var_383_end_0, end_mask = var_383_end_mask_0, x = var_21)[name = tensor<string, []>("op_383")];
            tensor<int32, [1]> var_388_begin_0 = const()[name = tensor<string, []>("op_388_begin_0"), val = tensor<int32, [1]>([11200])];
            tensor<int32, [1]> var_388_end_0 = const()[name = tensor<string, []>("op_388_end_0"), val = tensor<int32, [1]>([11600])];
            tensor<bool, [1]> var_388_end_mask_0 = const()[name = tensor<string, []>("op_388_end_mask_0"), val = tensor<bool, [1]>([false])];
            tensor<fp32, [400]> var_388 = slice_by_index(begin = var_388_begin_0, end = var_388_end_0, end_mask = var_388_end_mask_0, x = var_21)[name = tensor<string, []>("op_388")];
            tensor<int32, [1]> var_393_begin_0 = const()[name = tensor<string, []>("op_393_begin_0"), val = tensor<int32, [1]>([11360])];
            tensor<int32, [1]> var_393_end_0 = const()[name = tensor<string, []>("op_393_end_0"), val = tensor<int32, [1]>([11760])];
            tensor<bool, [1]> var_393_end_mask_0 = const()[name = tensor<string, []>("op_393_end_mask_0"), val = tensor<bool, [1]>([false])];
            tensor<fp32, [400]> var_393 = slice_by_index(begin = var_393_begin_0, end = var_393_end_0, end_mask = var_393_end_mask_0, x = var_21)[name = tensor<string, []>("op_393")];
            tensor<int32, [1]> var_398_begin_0 = const()[name = tensor<string, []>("op_398_begin_0"), val = tensor<int32, [1]>([11520])];
            tensor<int32, [1]> var_398_end_0 = const()[name = tensor<string, []>("op_398_end_0"), val = tensor<int32, [1]>([11920])];
            tensor<bool, [1]> var_398_end_mask_0 = const()[name = tensor<string, []>("op_398_end_mask_0"), val = tensor<bool, [1]>([false])];
            tensor<fp32, [400]> var_398 = slice_by_index(begin = var_398_begin_0, end = var_398_end_0, end_mask = var_398_end_mask_0, x = var_21)[name = tensor<string, []>("op_398")];
            tensor<int32, [1]> var_403_begin_0 = const()[name = tensor<string, []>("op_403_begin_0"), val = tensor<int32, [1]>([11680])];
            tensor<int32, [1]> var_403_end_0 = const()[name = tensor<string, []>("op_403_end_0"), val = tensor<int32, [1]>([12080])];
            tensor<bool, [1]> var_403_end_mask_0 = const()[name = tensor<string, []>("op_403_end_mask_0"), val = tensor<bool, [1]>([false])];
            tensor<fp32, [400]> var_403 = slice_by_index(begin = var_403_begin_0, end = var_403_end_0, end_mask = var_403_end_mask_0, x = var_21)[name = tensor<string, []>("op_403")];
            tensor<int32, [1]> var_408_begin_0 = const()[name = tensor<string, []>("op_408_begin_0"), val = tensor<int32, [1]>([11840])];
            tensor<int32, [1]> var_408_end_0 = const()[name = tensor<string, []>("op_408_end_0"), val = tensor<int32, [1]>([12240])];
            tensor<bool, [1]> var_408_end_mask_0 = const()[name = tensor<string, []>("op_408_end_mask_0"), val = tensor<bool, [1]>([false])];
            tensor<fp32, [400]> var_408 = slice_by_index(begin = var_408_begin_0, end = var_408_end_0, end_mask = var_408_end_mask_0, x = var_21)[name = tensor<string, []>("op_408")];
            tensor<int32, [1]> var_413_begin_0 = const()[name = tensor<string, []>("op_413_begin_0"), val = tensor<int32, [1]>([12000])];
            tensor<int32, [1]> var_413_end_0 = const()[name = tensor<string, []>("op_413_end_0"), val = tensor<int32, [1]>([12400])];
            tensor<bool, [1]> var_413_end_mask_0 = const()[name = tensor<string, []>("op_413_end_mask_0"), val = tensor<bool, [1]>([false])];
            tensor<fp32, [400]> var_413 = slice_by_index(begin = var_413_begin_0, end = var_413_end_0, end_mask = var_413_end_mask_0, x = var_21)[name = tensor<string, []>("op_413")];
            tensor<int32, [1]> var_418_begin_0 = const()[name = tensor<string, []>("op_418_begin_0"), val = tensor<int32, [1]>([12160])];
            tensor<int32, [1]> var_418_end_0 = const()[name = tensor<string, []>("op_418_end_0"), val = tensor<int32, [1]>([12560])];
            tensor<bool, [1]> var_418_end_mask_0 = const()[name = tensor<string, []>("op_418_end_mask_0"), val = tensor<bool, [1]>([false])];
            tensor<fp32, [400]> var_418 = slice_by_index(begin = var_418_begin_0, end = var_418_end_0, end_mask = var_418_end_mask_0, x = var_21)[name = tensor<string, []>("op_418")];
            tensor<int32, [1]> var_423_begin_0 = const()[name = tensor<string, []>("op_423_begin_0"), val = tensor<int32, [1]>([12320])];
            tensor<int32, [1]> var_423_end_0 = const()[name = tensor<string, []>("op_423_end_0"), val = tensor<int32, [1]>([12720])];
            tensor<bool, [1]> var_423_end_mask_0 = const()[name = tensor<string, []>("op_423_end_mask_0"), val = tensor<bool, [1]>([false])];
            tensor<fp32, [400]> var_423 = slice_by_index(begin = var_423_begin_0, end = var_423_end_0, end_mask = var_423_end_mask_0, x = var_21)[name = tensor<string, []>("op_423")];
            tensor<int32, [1]> var_428_begin_0 = const()[name = tensor<string, []>("op_428_begin_0"), val = tensor<int32, [1]>([12480])];
            tensor<int32, [1]> var_428_end_0 = const()[name = tensor<string, []>("op_428_end_0"), val = tensor<int32, [1]>([12880])];
            tensor<bool, [1]> var_428_end_mask_0 = const()[name = tensor<string, []>("op_428_end_mask_0"), val = tensor<bool, [1]>([false])];
            tensor<fp32, [400]> var_428 = slice_by_index(begin = var_428_begin_0, end = var_428_end_0, end_mask = var_428_end_mask_0, x = var_21)[name = tensor<string, []>("op_428")];
            tensor<int32, [1]> var_433_begin_0 = const()[name = tensor<string, []>("op_433_begin_0"), val = tensor<int32, [1]>([12640])];
            tensor<int32, [1]> var_433_end_0 = const()[name = tensor<string, []>("op_433_end_0"), val = tensor<int32, [1]>([13040])];
            tensor<bool, [1]> var_433_end_mask_0 = const()[name = tensor<string, []>("op_433_end_mask_0"), val = tensor<bool, [1]>([false])];
            tensor<fp32, [400]> var_433 = slice_by_index(begin = var_433_begin_0, end = var_433_end_0, end_mask = var_433_end_mask_0, x = var_21)[name = tensor<string, []>("op_433")];
            tensor<int32, [1]> var_438_begin_0 = const()[name = tensor<string, []>("op_438_begin_0"), val = tensor<int32, [1]>([12800])];
            tensor<int32, [1]> var_438_end_0 = const()[name = tensor<string, []>("op_438_end_0"), val = tensor<int32, [1]>([13200])];
            tensor<bool, [1]> var_438_end_mask_0 = const()[name = tensor<string, []>("op_438_end_mask_0"), val = tensor<bool, [1]>([false])];
            tensor<fp32, [400]> var_438 = slice_by_index(begin = var_438_begin_0, end = var_438_end_0, end_mask = var_438_end_mask_0, x = var_21)[name = tensor<string, []>("op_438")];
            tensor<int32, [1]> var_443_begin_0 = const()[name = tensor<string, []>("op_443_begin_0"), val = tensor<int32, [1]>([12960])];
            tensor<int32, [1]> var_443_end_0 = const()[name = tensor<string, []>("op_443_end_0"), val = tensor<int32, [1]>([13360])];
            tensor<bool, [1]> var_443_end_mask_0 = const()[name = tensor<string, []>("op_443_end_mask_0"), val = tensor<bool, [1]>([false])];
            tensor<fp32, [400]> var_443 = slice_by_index(begin = var_443_begin_0, end = var_443_end_0, end_mask = var_443_end_mask_0, x = var_21)[name = tensor<string, []>("op_443")];
            tensor<int32, [1]> var_448_begin_0 = const()[name = tensor<string, []>("op_448_begin_0"), val = tensor<int32, [1]>([13120])];
            tensor<int32, [1]> var_448_end_0 = const()[name = tensor<string, []>("op_448_end_0"), val = tensor<int32, [1]>([13520])];
            tensor<bool, [1]> var_448_end_mask_0 = const()[name = tensor<string, []>("op_448_end_mask_0"), val = tensor<bool, [1]>([false])];
            tensor<fp32, [400]> var_448 = slice_by_index(begin = var_448_begin_0, end = var_448_end_0, end_mask = var_448_end_mask_0, x = var_21)[name = tensor<string, []>("op_448")];
            tensor<int32, [1]> var_453_begin_0 = const()[name = tensor<string, []>("op_453_begin_0"), val = tensor<int32, [1]>([13280])];
            tensor<int32, [1]> var_453_end_0 = const()[name = tensor<string, []>("op_453_end_0"), val = tensor<int32, [1]>([13680])];
            tensor<bool, [1]> var_453_end_mask_0 = const()[name = tensor<string, []>("op_453_end_mask_0"), val = tensor<bool, [1]>([false])];
            tensor<fp32, [400]> var_453 = slice_by_index(begin = var_453_begin_0, end = var_453_end_0, end_mask = var_453_end_mask_0, x = var_21)[name = tensor<string, []>("op_453")];
            tensor<int32, [1]> var_458_begin_0 = const()[name = tensor<string, []>("op_458_begin_0"), val = tensor<int32, [1]>([13440])];
            tensor<int32, [1]> var_458_end_0 = const()[name = tensor<string, []>("op_458_end_0"), val = tensor<int32, [1]>([13840])];
            tensor<bool, [1]> var_458_end_mask_0 = const()[name = tensor<string, []>("op_458_end_mask_0"), val = tensor<bool, [1]>([false])];
            tensor<fp32, [400]> var_458 = slice_by_index(begin = var_458_begin_0, end = var_458_end_0, end_mask = var_458_end_mask_0, x = var_21)[name = tensor<string, []>("op_458")];
            tensor<int32, [1]> var_463_begin_0 = const()[name = tensor<string, []>("op_463_begin_0"), val = tensor<int32, [1]>([13600])];
            tensor<int32, [1]> var_463_end_0 = const()[name = tensor<string, []>("op_463_end_0"), val = tensor<int32, [1]>([14000])];
            tensor<bool, [1]> var_463_end_mask_0 = const()[name = tensor<string, []>("op_463_end_mask_0"), val = tensor<bool, [1]>([false])];
            tensor<fp32, [400]> var_463 = slice_by_index(begin = var_463_begin_0, end = var_463_end_0, end_mask = var_463_end_mask_0, x = var_21)[name = tensor<string, []>("op_463")];
            tensor<int32, [1]> var_468_begin_0 = const()[name = tensor<string, []>("op_468_begin_0"), val = tensor<int32, [1]>([13760])];
            tensor<int32, [1]> var_468_end_0 = const()[name = tensor<string, []>("op_468_end_0"), val = tensor<int32, [1]>([14160])];
            tensor<bool, [1]> var_468_end_mask_0 = const()[name = tensor<string, []>("op_468_end_mask_0"), val = tensor<bool, [1]>([false])];
            tensor<fp32, [400]> var_468 = slice_by_index(begin = var_468_begin_0, end = var_468_end_0, end_mask = var_468_end_mask_0, x = var_21)[name = tensor<string, []>("op_468")];
            tensor<int32, [1]> var_473_begin_0 = const()[name = tensor<string, []>("op_473_begin_0"), val = tensor<int32, [1]>([13920])];
            tensor<int32, [1]> var_473_end_0 = const()[name = tensor<string, []>("op_473_end_0"), val = tensor<int32, [1]>([14320])];
            tensor<bool, [1]> var_473_end_mask_0 = const()[name = tensor<string, []>("op_473_end_mask_0"), val = tensor<bool, [1]>([false])];
            tensor<fp32, [400]> var_473 = slice_by_index(begin = var_473_begin_0, end = var_473_end_0, end_mask = var_473_end_mask_0, x = var_21)[name = tensor<string, []>("op_473")];
            tensor<int32, [1]> var_478_begin_0 = const()[name = tensor<string, []>("op_478_begin_0"), val = tensor<int32, [1]>([14080])];
            tensor<int32, [1]> var_478_end_0 = const()[name = tensor<string, []>("op_478_end_0"), val = tensor<int32, [1]>([14480])];
            tensor<bool, [1]> var_478_end_mask_0 = const()[name = tensor<string, []>("op_478_end_mask_0"), val = tensor<bool, [1]>([false])];
            tensor<fp32, [400]> var_478 = slice_by_index(begin = var_478_begin_0, end = var_478_end_0, end_mask = var_478_end_mask_0, x = var_21)[name = tensor<string, []>("op_478")];
            tensor<int32, [1]> var_483_begin_0 = const()[name = tensor<string, []>("op_483_begin_0"), val = tensor<int32, [1]>([14240])];
            tensor<int32, [1]> var_483_end_0 = const()[name = tensor<string, []>("op_483_end_0"), val = tensor<int32, [1]>([14640])];
            tensor<bool, [1]> var_483_end_mask_0 = const()[name = tensor<string, []>("op_483_end_mask_0"), val = tensor<bool, [1]>([false])];
            tensor<fp32, [400]> var_483 = slice_by_index(begin = var_483_begin_0, end = var_483_end_0, end_mask = var_483_end_mask_0, x = var_21)[name = tensor<string, []>("op_483")];
            tensor<int32, [1]> var_488_begin_0 = const()[name = tensor<string, []>("op_488_begin_0"), val = tensor<int32, [1]>([14400])];
            tensor<int32, [1]> var_488_end_0 = const()[name = tensor<string, []>("op_488_end_0"), val = tensor<int32, [1]>([14800])];
            tensor<bool, [1]> var_488_end_mask_0 = const()[name = tensor<string, []>("op_488_end_mask_0"), val = tensor<bool, [1]>([false])];
            tensor<fp32, [400]> var_488 = slice_by_index(begin = var_488_begin_0, end = var_488_end_0, end_mask = var_488_end_mask_0, x = var_21)[name = tensor<string, []>("op_488")];
            tensor<int32, [1]> var_493_begin_0 = const()[name = tensor<string, []>("op_493_begin_0"), val = tensor<int32, [1]>([14560])];
            tensor<int32, [1]> var_493_end_0 = const()[name = tensor<string, []>("op_493_end_0"), val = tensor<int32, [1]>([14960])];
            tensor<bool, [1]> var_493_end_mask_0 = const()[name = tensor<string, []>("op_493_end_mask_0"), val = tensor<bool, [1]>([false])];
            tensor<fp32, [400]> var_493 = slice_by_index(begin = var_493_begin_0, end = var_493_end_0, end_mask = var_493_end_mask_0, x = var_21)[name = tensor<string, []>("op_493")];
            tensor<int32, [1]> var_498_begin_0 = const()[name = tensor<string, []>("op_498_begin_0"), val = tensor<int32, [1]>([14720])];
            tensor<int32, [1]> var_498_end_0 = const()[name = tensor<string, []>("op_498_end_0"), val = tensor<int32, [1]>([15120])];
            tensor<bool, [1]> var_498_end_mask_0 = const()[name = tensor<string, []>("op_498_end_mask_0"), val = tensor<bool, [1]>([false])];
            tensor<fp32, [400]> var_498 = slice_by_index(begin = var_498_begin_0, end = var_498_end_0, end_mask = var_498_end_mask_0, x = var_21)[name = tensor<string, []>("op_498")];
            tensor<int32, [1]> var_503_begin_0 = const()[name = tensor<string, []>("op_503_begin_0"), val = tensor<int32, [1]>([14880])];
            tensor<int32, [1]> var_503_end_0 = const()[name = tensor<string, []>("op_503_end_0"), val = tensor<int32, [1]>([15280])];
            tensor<bool, [1]> var_503_end_mask_0 = const()[name = tensor<string, []>("op_503_end_mask_0"), val = tensor<bool, [1]>([false])];
            tensor<fp32, [400]> var_503 = slice_by_index(begin = var_503_begin_0, end = var_503_end_0, end_mask = var_503_end_mask_0, x = var_21)[name = tensor<string, []>("op_503")];
            tensor<int32, [1]> var_508_begin_0 = const()[name = tensor<string, []>("op_508_begin_0"), val = tensor<int32, [1]>([15040])];
            tensor<int32, [1]> var_508_end_0 = const()[name = tensor<string, []>("op_508_end_0"), val = tensor<int32, [1]>([15440])];
            tensor<bool, [1]> var_508_end_mask_0 = const()[name = tensor<string, []>("op_508_end_mask_0"), val = tensor<bool, [1]>([false])];
            tensor<fp32, [400]> var_508 = slice_by_index(begin = var_508_begin_0, end = var_508_end_0, end_mask = var_508_end_mask_0, x = var_21)[name = tensor<string, []>("op_508")];
            tensor<int32, [1]> var_513_begin_0 = const()[name = tensor<string, []>("op_513_begin_0"), val = tensor<int32, [1]>([15200])];
            tensor<int32, [1]> var_513_end_0 = const()[name = tensor<string, []>("op_513_end_0"), val = tensor<int32, [1]>([15600])];
            tensor<bool, [1]> var_513_end_mask_0 = const()[name = tensor<string, []>("op_513_end_mask_0"), val = tensor<bool, [1]>([false])];
            tensor<fp32, [400]> var_513 = slice_by_index(begin = var_513_begin_0, end = var_513_end_0, end_mask = var_513_end_mask_0, x = var_21)[name = tensor<string, []>("op_513")];
            tensor<int32, [1]> var_518_begin_0 = const()[name = tensor<string, []>("op_518_begin_0"), val = tensor<int32, [1]>([15360])];
            tensor<int32, [1]> var_518_end_0 = const()[name = tensor<string, []>("op_518_end_0"), val = tensor<int32, [1]>([15760])];
            tensor<bool, [1]> var_518_end_mask_0 = const()[name = tensor<string, []>("op_518_end_mask_0"), val = tensor<bool, [1]>([false])];
            tensor<fp32, [400]> var_518 = slice_by_index(begin = var_518_begin_0, end = var_518_end_0, end_mask = var_518_end_mask_0, x = var_21)[name = tensor<string, []>("op_518")];
            tensor<int32, [1]> var_523_begin_0 = const()[name = tensor<string, []>("op_523_begin_0"), val = tensor<int32, [1]>([15520])];
            tensor<int32, [1]> var_523_end_0 = const()[name = tensor<string, []>("op_523_end_0"), val = tensor<int32, [1]>([15920])];
            tensor<bool, [1]> var_523_end_mask_0 = const()[name = tensor<string, []>("op_523_end_mask_0"), val = tensor<bool, [1]>([false])];
            tensor<fp32, [400]> var_523 = slice_by_index(begin = var_523_begin_0, end = var_523_end_0, end_mask = var_523_end_mask_0, x = var_21)[name = tensor<string, []>("op_523")];
            tensor<int32, [1]> var_528_begin_0 = const()[name = tensor<string, []>("op_528_begin_0"), val = tensor<int32, [1]>([15680])];
            tensor<int32, [1]> var_528_end_0 = const()[name = tensor<string, []>("op_528_end_0"), val = tensor<int32, [1]>([16080])];
            tensor<bool, [1]> var_528_end_mask_0 = const()[name = tensor<string, []>("op_528_end_mask_0"), val = tensor<bool, [1]>([false])];
            tensor<fp32, [400]> var_528 = slice_by_index(begin = var_528_begin_0, end = var_528_end_0, end_mask = var_528_end_mask_0, x = var_21)[name = tensor<string, []>("op_528")];
            tensor<int32, [1]> var_533_begin_0 = const()[name = tensor<string, []>("op_533_begin_0"), val = tensor<int32, [1]>([15840])];
            tensor<int32, [1]> var_533_end_0 = const()[name = tensor<string, []>("op_533_end_0"), val = tensor<int32, [1]>([16240])];
            tensor<bool, [1]> var_533_end_mask_0 = const()[name = tensor<string, []>("op_533_end_mask_0"), val = tensor<bool, [1]>([false])];
            tensor<fp32, [400]> var_533 = slice_by_index(begin = var_533_begin_0, end = var_533_end_0, end_mask = var_533_end_mask_0, x = var_21)[name = tensor<string, []>("op_533")];
            tensor<int32, [1]> var_538_begin_0 = const()[name = tensor<string, []>("op_538_begin_0"), val = tensor<int32, [1]>([16000])];
            tensor<int32, [1]> var_538_end_0 = const()[name = tensor<string, []>("op_538_end_0"), val = tensor<int32, [1]>([16400])];
            tensor<bool, [1]> var_538_end_mask_0 = const()[name = tensor<string, []>("op_538_end_mask_0"), val = tensor<bool, [1]>([false])];
            tensor<fp32, [400]> var_538 = slice_by_index(begin = var_538_begin_0, end = var_538_end_0, end_mask = var_538_end_mask_0, x = var_21)[name = tensor<string, []>("op_538")];
            tensor<int32, [1]> var_543_begin_0 = const()[name = tensor<string, []>("op_543_begin_0"), val = tensor<int32, [1]>([16160])];
            tensor<int32, [1]> var_543_end_0 = const()[name = tensor<string, []>("op_543_end_0"), val = tensor<int32, [1]>([16560])];
            tensor<bool, [1]> var_543_end_mask_0 = const()[name = tensor<string, []>("op_543_end_mask_0"), val = tensor<bool, [1]>([false])];
            tensor<fp32, [400]> var_543 = slice_by_index(begin = var_543_begin_0, end = var_543_end_0, end_mask = var_543_end_mask_0, x = var_21)[name = tensor<string, []>("op_543")];
            tensor<int32, [1]> var_548_begin_0 = const()[name = tensor<string, []>("op_548_begin_0"), val = tensor<int32, [1]>([16320])];
            tensor<int32, [1]> var_548_end_0 = const()[name = tensor<string, []>("op_548_end_0"), val = tensor<int32, [1]>([16720])];
            tensor<bool, [1]> var_548_end_mask_0 = const()[name = tensor<string, []>("op_548_end_mask_0"), val = tensor<bool, [1]>([false])];
            tensor<fp32, [400]> var_548 = slice_by_index(begin = var_548_begin_0, end = var_548_end_0, end_mask = var_548_end_mask_0, x = var_21)[name = tensor<string, []>("op_548")];
            tensor<int32, [1]> var_553_begin_0 = const()[name = tensor<string, []>("op_553_begin_0"), val = tensor<int32, [1]>([16480])];
            tensor<int32, [1]> var_553_end_0 = const()[name = tensor<string, []>("op_553_end_0"), val = tensor<int32, [1]>([16880])];
            tensor<bool, [1]> var_553_end_mask_0 = const()[name = tensor<string, []>("op_553_end_mask_0"), val = tensor<bool, [1]>([false])];
            tensor<fp32, [400]> var_553 = slice_by_index(begin = var_553_begin_0, end = var_553_end_0, end_mask = var_553_end_mask_0, x = var_21)[name = tensor<string, []>("op_553")];
            tensor<int32, [1]> var_558_begin_0 = const()[name = tensor<string, []>("op_558_begin_0"), val = tensor<int32, [1]>([16640])];
            tensor<int32, [1]> var_558_end_0 = const()[name = tensor<string, []>("op_558_end_0"), val = tensor<int32, [1]>([17040])];
            tensor<bool, [1]> var_558_end_mask_0 = const()[name = tensor<string, []>("op_558_end_mask_0"), val = tensor<bool, [1]>([false])];
            tensor<fp32, [400]> var_558 = slice_by_index(begin = var_558_begin_0, end = var_558_end_0, end_mask = var_558_end_mask_0, x = var_21)[name = tensor<string, []>("op_558")];
            tensor<int32, [1]> var_563_begin_0 = const()[name = tensor<string, []>("op_563_begin_0"), val = tensor<int32, [1]>([16800])];
            tensor<int32, [1]> var_563_end_0 = const()[name = tensor<string, []>("op_563_end_0"), val = tensor<int32, [1]>([17200])];
            tensor<bool, [1]> var_563_end_mask_0 = const()[name = tensor<string, []>("op_563_end_mask_0"), val = tensor<bool, [1]>([false])];
            tensor<fp32, [400]> var_563 = slice_by_index(begin = var_563_begin_0, end = var_563_end_0, end_mask = var_563_end_mask_0, x = var_21)[name = tensor<string, []>("op_563")];
            tensor<int32, [1]> var_568_begin_0 = const()[name = tensor<string, []>("op_568_begin_0"), val = tensor<int32, [1]>([16960])];
            tensor<int32, [1]> var_568_end_0 = const()[name = tensor<string, []>("op_568_end_0"), val = tensor<int32, [1]>([17360])];
            tensor<bool, [1]> var_568_end_mask_0 = const()[name = tensor<string, []>("op_568_end_mask_0"), val = tensor<bool, [1]>([false])];
            tensor<fp32, [400]> var_568 = slice_by_index(begin = var_568_begin_0, end = var_568_end_0, end_mask = var_568_end_mask_0, x = var_21)[name = tensor<string, []>("op_568")];
            tensor<int32, [1]> var_573_begin_0 = const()[name = tensor<string, []>("op_573_begin_0"), val = tensor<int32, [1]>([17120])];
            tensor<int32, [1]> var_573_end_0 = const()[name = tensor<string, []>("op_573_end_0"), val = tensor<int32, [1]>([17520])];
            tensor<bool, [1]> var_573_end_mask_0 = const()[name = tensor<string, []>("op_573_end_mask_0"), val = tensor<bool, [1]>([false])];
            tensor<fp32, [400]> var_573 = slice_by_index(begin = var_573_begin_0, end = var_573_end_0, end_mask = var_573_end_mask_0, x = var_21)[name = tensor<string, []>("op_573")];
            tensor<int32, [1]> var_578_begin_0 = const()[name = tensor<string, []>("op_578_begin_0"), val = tensor<int32, [1]>([17280])];
            tensor<int32, [1]> var_578_end_0 = const()[name = tensor<string, []>("op_578_end_0"), val = tensor<int32, [1]>([17680])];
            tensor<bool, [1]> var_578_end_mask_0 = const()[name = tensor<string, []>("op_578_end_mask_0"), val = tensor<bool, [1]>([false])];
            tensor<fp32, [400]> var_578 = slice_by_index(begin = var_578_begin_0, end = var_578_end_0, end_mask = var_578_end_mask_0, x = var_21)[name = tensor<string, []>("op_578")];
            tensor<int32, [1]> var_583_begin_0 = const()[name = tensor<string, []>("op_583_begin_0"), val = tensor<int32, [1]>([17440])];
            tensor<int32, [1]> var_583_end_0 = const()[name = tensor<string, []>("op_583_end_0"), val = tensor<int32, [1]>([17840])];
            tensor<bool, [1]> var_583_end_mask_0 = const()[name = tensor<string, []>("op_583_end_mask_0"), val = tensor<bool, [1]>([false])];
            tensor<fp32, [400]> var_583 = slice_by_index(begin = var_583_begin_0, end = var_583_end_0, end_mask = var_583_end_mask_0, x = var_21)[name = tensor<string, []>("op_583")];
            tensor<int32, [1]> var_588_begin_0 = const()[name = tensor<string, []>("op_588_begin_0"), val = tensor<int32, [1]>([17600])];
            tensor<int32, [1]> var_588_end_0 = const()[name = tensor<string, []>("op_588_end_0"), val = tensor<int32, [1]>([18000])];
            tensor<bool, [1]> var_588_end_mask_0 = const()[name = tensor<string, []>("op_588_end_mask_0"), val = tensor<bool, [1]>([false])];
            tensor<fp32, [400]> var_588 = slice_by_index(begin = var_588_begin_0, end = var_588_end_0, end_mask = var_588_end_mask_0, x = var_21)[name = tensor<string, []>("op_588")];
            tensor<int32, [1]> var_593_begin_0 = const()[name = tensor<string, []>("op_593_begin_0"), val = tensor<int32, [1]>([17760])];
            tensor<int32, [1]> var_593_end_0 = const()[name = tensor<string, []>("op_593_end_0"), val = tensor<int32, [1]>([18160])];
            tensor<bool, [1]> var_593_end_mask_0 = const()[name = tensor<string, []>("op_593_end_mask_0"), val = tensor<bool, [1]>([false])];
            tensor<fp32, [400]> var_593 = slice_by_index(begin = var_593_begin_0, end = var_593_end_0, end_mask = var_593_end_mask_0, x = var_21)[name = tensor<string, []>("op_593")];
            tensor<int32, [1]> var_598_begin_0 = const()[name = tensor<string, []>("op_598_begin_0"), val = tensor<int32, [1]>([17920])];
            tensor<int32, [1]> var_598_end_0 = const()[name = tensor<string, []>("op_598_end_0"), val = tensor<int32, [1]>([18320])];
            tensor<bool, [1]> var_598_end_mask_0 = const()[name = tensor<string, []>("op_598_end_mask_0"), val = tensor<bool, [1]>([false])];
            tensor<fp32, [400]> var_598 = slice_by_index(begin = var_598_begin_0, end = var_598_end_0, end_mask = var_598_end_mask_0, x = var_21)[name = tensor<string, []>("op_598")];
            tensor<int32, [1]> var_603_begin_0 = const()[name = tensor<string, []>("op_603_begin_0"), val = tensor<int32, [1]>([18080])];
            tensor<int32, [1]> var_603_end_0 = const()[name = tensor<string, []>("op_603_end_0"), val = tensor<int32, [1]>([18480])];
            tensor<bool, [1]> var_603_end_mask_0 = const()[name = tensor<string, []>("op_603_end_mask_0"), val = tensor<bool, [1]>([false])];
            tensor<fp32, [400]> var_603 = slice_by_index(begin = var_603_begin_0, end = var_603_end_0, end_mask = var_603_end_mask_0, x = var_21)[name = tensor<string, []>("op_603")];
            tensor<int32, [1]> var_608_begin_0 = const()[name = tensor<string, []>("op_608_begin_0"), val = tensor<int32, [1]>([18240])];
            tensor<int32, [1]> var_608_end_0 = const()[name = tensor<string, []>("op_608_end_0"), val = tensor<int32, [1]>([18640])];
            tensor<bool, [1]> var_608_end_mask_0 = const()[name = tensor<string, []>("op_608_end_mask_0"), val = tensor<bool, [1]>([false])];
            tensor<fp32, [400]> var_608 = slice_by_index(begin = var_608_begin_0, end = var_608_end_0, end_mask = var_608_end_mask_0, x = var_21)[name = tensor<string, []>("op_608")];
            tensor<int32, [1]> var_613_begin_0 = const()[name = tensor<string, []>("op_613_begin_0"), val = tensor<int32, [1]>([18400])];
            tensor<int32, [1]> var_613_end_0 = const()[name = tensor<string, []>("op_613_end_0"), val = tensor<int32, [1]>([18800])];
            tensor<bool, [1]> var_613_end_mask_0 = const()[name = tensor<string, []>("op_613_end_mask_0"), val = tensor<bool, [1]>([false])];
            tensor<fp32, [400]> var_613 = slice_by_index(begin = var_613_begin_0, end = var_613_end_0, end_mask = var_613_end_mask_0, x = var_21)[name = tensor<string, []>("op_613")];
            tensor<int32, [1]> var_618_begin_0 = const()[name = tensor<string, []>("op_618_begin_0"), val = tensor<int32, [1]>([18560])];
            tensor<int32, [1]> var_618_end_0 = const()[name = tensor<string, []>("op_618_end_0"), val = tensor<int32, [1]>([18960])];
            tensor<bool, [1]> var_618_end_mask_0 = const()[name = tensor<string, []>("op_618_end_mask_0"), val = tensor<bool, [1]>([false])];
            tensor<fp32, [400]> var_618 = slice_by_index(begin = var_618_begin_0, end = var_618_end_0, end_mask = var_618_end_mask_0, x = var_21)[name = tensor<string, []>("op_618")];
            tensor<int32, [1]> var_623_begin_0 = const()[name = tensor<string, []>("op_623_begin_0"), val = tensor<int32, [1]>([18720])];
            tensor<int32, [1]> var_623_end_0 = const()[name = tensor<string, []>("op_623_end_0"), val = tensor<int32, [1]>([19120])];
            tensor<bool, [1]> var_623_end_mask_0 = const()[name = tensor<string, []>("op_623_end_mask_0"), val = tensor<bool, [1]>([false])];
            tensor<fp32, [400]> var_623 = slice_by_index(begin = var_623_begin_0, end = var_623_end_0, end_mask = var_623_end_mask_0, x = var_21)[name = tensor<string, []>("op_623")];
            tensor<int32, [1]> var_628_begin_0 = const()[name = tensor<string, []>("op_628_begin_0"), val = tensor<int32, [1]>([18880])];
            tensor<int32, [1]> var_628_end_0 = const()[name = tensor<string, []>("op_628_end_0"), val = tensor<int32, [1]>([19280])];
            tensor<bool, [1]> var_628_end_mask_0 = const()[name = tensor<string, []>("op_628_end_mask_0"), val = tensor<bool, [1]>([false])];
            tensor<fp32, [400]> var_628 = slice_by_index(begin = var_628_begin_0, end = var_628_end_0, end_mask = var_628_end_mask_0, x = var_21)[name = tensor<string, []>("op_628")];
            tensor<int32, [1]> var_633_begin_0 = const()[name = tensor<string, []>("op_633_begin_0"), val = tensor<int32, [1]>([19040])];
            tensor<int32, [1]> var_633_end_0 = const()[name = tensor<string, []>("op_633_end_0"), val = tensor<int32, [1]>([19440])];
            tensor<bool, [1]> var_633_end_mask_0 = const()[name = tensor<string, []>("op_633_end_mask_0"), val = tensor<bool, [1]>([false])];
            tensor<fp32, [400]> var_633 = slice_by_index(begin = var_633_begin_0, end = var_633_end_0, end_mask = var_633_end_mask_0, x = var_21)[name = tensor<string, []>("op_633")];
            tensor<int32, [1]> var_638_begin_0 = const()[name = tensor<string, []>("op_638_begin_0"), val = tensor<int32, [1]>([19200])];
            tensor<int32, [1]> var_638_end_0 = const()[name = tensor<string, []>("op_638_end_0"), val = tensor<int32, [1]>([19600])];
            tensor<bool, [1]> var_638_end_mask_0 = const()[name = tensor<string, []>("op_638_end_mask_0"), val = tensor<bool, [1]>([false])];
            tensor<fp32, [400]> var_638 = slice_by_index(begin = var_638_begin_0, end = var_638_end_0, end_mask = var_638_end_mask_0, x = var_21)[name = tensor<string, []>("op_638")];
            tensor<int32, [1]> var_643_begin_0 = const()[name = tensor<string, []>("op_643_begin_0"), val = tensor<int32, [1]>([19360])];
            tensor<int32, [1]> var_643_end_0 = const()[name = tensor<string, []>("op_643_end_0"), val = tensor<int32, [1]>([19760])];
            tensor<bool, [1]> var_643_end_mask_0 = const()[name = tensor<string, []>("op_643_end_mask_0"), val = tensor<bool, [1]>([false])];
            tensor<fp32, [400]> var_643 = slice_by_index(begin = var_643_begin_0, end = var_643_end_0, end_mask = var_643_end_mask_0, x = var_21)[name = tensor<string, []>("op_643")];
            tensor<int32, [1]> var_648_begin_0 = const()[name = tensor<string, []>("op_648_begin_0"), val = tensor<int32, [1]>([19520])];
            tensor<int32, [1]> var_648_end_0 = const()[name = tensor<string, []>("op_648_end_0"), val = tensor<int32, [1]>([19920])];
            tensor<bool, [1]> var_648_end_mask_0 = const()[name = tensor<string, []>("op_648_end_mask_0"), val = tensor<bool, [1]>([false])];
            tensor<fp32, [400]> var_648 = slice_by_index(begin = var_648_begin_0, end = var_648_end_0, end_mask = var_648_end_mask_0, x = var_21)[name = tensor<string, []>("op_648")];
            tensor<int32, [1]> var_653_begin_0 = const()[name = tensor<string, []>("op_653_begin_0"), val = tensor<int32, [1]>([19680])];
            tensor<int32, [1]> var_653_end_0 = const()[name = tensor<string, []>("op_653_end_0"), val = tensor<int32, [1]>([20080])];
            tensor<bool, [1]> var_653_end_mask_0 = const()[name = tensor<string, []>("op_653_end_mask_0"), val = tensor<bool, [1]>([false])];
            tensor<fp32, [400]> var_653 = slice_by_index(begin = var_653_begin_0, end = var_653_end_0, end_mask = var_653_end_mask_0, x = var_21)[name = tensor<string, []>("op_653")];
            tensor<int32, [1]> var_658_begin_0 = const()[name = tensor<string, []>("op_658_begin_0"), val = tensor<int32, [1]>([19840])];
            tensor<int32, [1]> var_658_end_0 = const()[name = tensor<string, []>("op_658_end_0"), val = tensor<int32, [1]>([20240])];
            tensor<bool, [1]> var_658_end_mask_0 = const()[name = tensor<string, []>("op_658_end_mask_0"), val = tensor<bool, [1]>([false])];
            tensor<fp32, [400]> var_658 = slice_by_index(begin = var_658_begin_0, end = var_658_end_0, end_mask = var_658_end_mask_0, x = var_21)[name = tensor<string, []>("op_658")];
            tensor<int32, [1]> var_663_begin_0 = const()[name = tensor<string, []>("op_663_begin_0"), val = tensor<int32, [1]>([20000])];
            tensor<int32, [1]> var_663_end_0 = const()[name = tensor<string, []>("op_663_end_0"), val = tensor<int32, [1]>([20400])];
            tensor<bool, [1]> var_663_end_mask_0 = const()[name = tensor<string, []>("op_663_end_mask_0"), val = tensor<bool, [1]>([false])];
            tensor<fp32, [400]> var_663 = slice_by_index(begin = var_663_begin_0, end = var_663_end_0, end_mask = var_663_end_mask_0, x = var_21)[name = tensor<string, []>("op_663")];
            tensor<int32, [1]> var_668_begin_0 = const()[name = tensor<string, []>("op_668_begin_0"), val = tensor<int32, [1]>([20160])];
            tensor<int32, [1]> var_668_end_0 = const()[name = tensor<string, []>("op_668_end_0"), val = tensor<int32, [1]>([20560])];
            tensor<bool, [1]> var_668_end_mask_0 = const()[name = tensor<string, []>("op_668_end_mask_0"), val = tensor<bool, [1]>([false])];
            tensor<fp32, [400]> var_668 = slice_by_index(begin = var_668_begin_0, end = var_668_end_0, end_mask = var_668_end_mask_0, x = var_21)[name = tensor<string, []>("op_668")];
            tensor<int32, [1]> var_673_begin_0 = const()[name = tensor<string, []>("op_673_begin_0"), val = tensor<int32, [1]>([20320])];
            tensor<int32, [1]> var_673_end_0 = const()[name = tensor<string, []>("op_673_end_0"), val = tensor<int32, [1]>([20720])];
            tensor<bool, [1]> var_673_end_mask_0 = const()[name = tensor<string, []>("op_673_end_mask_0"), val = tensor<bool, [1]>([false])];
            tensor<fp32, [400]> var_673 = slice_by_index(begin = var_673_begin_0, end = var_673_end_0, end_mask = var_673_end_mask_0, x = var_21)[name = tensor<string, []>("op_673")];
            tensor<int32, [1]> var_678_begin_0 = const()[name = tensor<string, []>("op_678_begin_0"), val = tensor<int32, [1]>([20480])];
            tensor<int32, [1]> var_678_end_0 = const()[name = tensor<string, []>("op_678_end_0"), val = tensor<int32, [1]>([20880])];
            tensor<bool, [1]> var_678_end_mask_0 = const()[name = tensor<string, []>("op_678_end_mask_0"), val = tensor<bool, [1]>([false])];
            tensor<fp32, [400]> var_678 = slice_by_index(begin = var_678_begin_0, end = var_678_end_0, end_mask = var_678_end_mask_0, x = var_21)[name = tensor<string, []>("op_678")];
            tensor<int32, [1]> var_683_begin_0 = const()[name = tensor<string, []>("op_683_begin_0"), val = tensor<int32, [1]>([20640])];
            tensor<int32, [1]> var_683_end_0 = const()[name = tensor<string, []>("op_683_end_0"), val = tensor<int32, [1]>([21040])];
            tensor<bool, [1]> var_683_end_mask_0 = const()[name = tensor<string, []>("op_683_end_mask_0"), val = tensor<bool, [1]>([false])];
            tensor<fp32, [400]> var_683 = slice_by_index(begin = var_683_begin_0, end = var_683_end_0, end_mask = var_683_end_mask_0, x = var_21)[name = tensor<string, []>("op_683")];
            tensor<int32, [1]> var_688_begin_0 = const()[name = tensor<string, []>("op_688_begin_0"), val = tensor<int32, [1]>([20800])];
            tensor<int32, [1]> var_688_end_0 = const()[name = tensor<string, []>("op_688_end_0"), val = tensor<int32, [1]>([21200])];
            tensor<bool, [1]> var_688_end_mask_0 = const()[name = tensor<string, []>("op_688_end_mask_0"), val = tensor<bool, [1]>([false])];
            tensor<fp32, [400]> var_688 = slice_by_index(begin = var_688_begin_0, end = var_688_end_0, end_mask = var_688_end_mask_0, x = var_21)[name = tensor<string, []>("op_688")];
            tensor<int32, [1]> var_693_begin_0 = const()[name = tensor<string, []>("op_693_begin_0"), val = tensor<int32, [1]>([20960])];
            tensor<int32, [1]> var_693_end_0 = const()[name = tensor<string, []>("op_693_end_0"), val = tensor<int32, [1]>([21360])];
            tensor<bool, [1]> var_693_end_mask_0 = const()[name = tensor<string, []>("op_693_end_mask_0"), val = tensor<bool, [1]>([false])];
            tensor<fp32, [400]> var_693 = slice_by_index(begin = var_693_begin_0, end = var_693_end_0, end_mask = var_693_end_mask_0, x = var_21)[name = tensor<string, []>("op_693")];
            tensor<int32, [1]> var_698_begin_0 = const()[name = tensor<string, []>("op_698_begin_0"), val = tensor<int32, [1]>([21120])];
            tensor<int32, [1]> var_698_end_0 = const()[name = tensor<string, []>("op_698_end_0"), val = tensor<int32, [1]>([21520])];
            tensor<bool, [1]> var_698_end_mask_0 = const()[name = tensor<string, []>("op_698_end_mask_0"), val = tensor<bool, [1]>([false])];
            tensor<fp32, [400]> var_698 = slice_by_index(begin = var_698_begin_0, end = var_698_end_0, end_mask = var_698_end_mask_0, x = var_21)[name = tensor<string, []>("op_698")];
            tensor<int32, [1]> var_703_begin_0 = const()[name = tensor<string, []>("op_703_begin_0"), val = tensor<int32, [1]>([21280])];
            tensor<int32, [1]> var_703_end_0 = const()[name = tensor<string, []>("op_703_end_0"), val = tensor<int32, [1]>([21680])];
            tensor<bool, [1]> var_703_end_mask_0 = const()[name = tensor<string, []>("op_703_end_mask_0"), val = tensor<bool, [1]>([false])];
            tensor<fp32, [400]> var_703 = slice_by_index(begin = var_703_begin_0, end = var_703_end_0, end_mask = var_703_end_mask_0, x = var_21)[name = tensor<string, []>("op_703")];
            tensor<int32, [1]> var_708_begin_0 = const()[name = tensor<string, []>("op_708_begin_0"), val = tensor<int32, [1]>([21440])];
            tensor<int32, [1]> var_708_end_0 = const()[name = tensor<string, []>("op_708_end_0"), val = tensor<int32, [1]>([21840])];
            tensor<bool, [1]> var_708_end_mask_0 = const()[name = tensor<string, []>("op_708_end_mask_0"), val = tensor<bool, [1]>([false])];
            tensor<fp32, [400]> var_708 = slice_by_index(begin = var_708_begin_0, end = var_708_end_0, end_mask = var_708_end_mask_0, x = var_21)[name = tensor<string, []>("op_708")];
            tensor<int32, [1]> var_713_begin_0 = const()[name = tensor<string, []>("op_713_begin_0"), val = tensor<int32, [1]>([21600])];
            tensor<int32, [1]> var_713_end_0 = const()[name = tensor<string, []>("op_713_end_0"), val = tensor<int32, [1]>([22000])];
            tensor<bool, [1]> var_713_end_mask_0 = const()[name = tensor<string, []>("op_713_end_mask_0"), val = tensor<bool, [1]>([false])];
            tensor<fp32, [400]> var_713 = slice_by_index(begin = var_713_begin_0, end = var_713_end_0, end_mask = var_713_end_mask_0, x = var_21)[name = tensor<string, []>("op_713")];
            tensor<int32, [1]> var_718_begin_0 = const()[name = tensor<string, []>("op_718_begin_0"), val = tensor<int32, [1]>([21760])];
            tensor<int32, [1]> var_718_end_0 = const()[name = tensor<string, []>("op_718_end_0"), val = tensor<int32, [1]>([22160])];
            tensor<bool, [1]> var_718_end_mask_0 = const()[name = tensor<string, []>("op_718_end_mask_0"), val = tensor<bool, [1]>([false])];
            tensor<fp32, [400]> var_718 = slice_by_index(begin = var_718_begin_0, end = var_718_end_0, end_mask = var_718_end_mask_0, x = var_21)[name = tensor<string, []>("op_718")];
            tensor<int32, [1]> var_723_begin_0 = const()[name = tensor<string, []>("op_723_begin_0"), val = tensor<int32, [1]>([21920])];
            tensor<int32, [1]> var_723_end_0 = const()[name = tensor<string, []>("op_723_end_0"), val = tensor<int32, [1]>([22320])];
            tensor<bool, [1]> var_723_end_mask_0 = const()[name = tensor<string, []>("op_723_end_mask_0"), val = tensor<bool, [1]>([false])];
            tensor<fp32, [400]> var_723 = slice_by_index(begin = var_723_begin_0, end = var_723_end_0, end_mask = var_723_end_mask_0, x = var_21)[name = tensor<string, []>("op_723")];
            tensor<int32, [1]> var_728_begin_0 = const()[name = tensor<string, []>("op_728_begin_0"), val = tensor<int32, [1]>([22080])];
            tensor<int32, [1]> var_728_end_0 = const()[name = tensor<string, []>("op_728_end_0"), val = tensor<int32, [1]>([22480])];
            tensor<bool, [1]> var_728_end_mask_0 = const()[name = tensor<string, []>("op_728_end_mask_0"), val = tensor<bool, [1]>([false])];
            tensor<fp32, [400]> var_728 = slice_by_index(begin = var_728_begin_0, end = var_728_end_0, end_mask = var_728_end_mask_0, x = var_21)[name = tensor<string, []>("op_728")];
            tensor<int32, [1]> var_733_begin_0 = const()[name = tensor<string, []>("op_733_begin_0"), val = tensor<int32, [1]>([22240])];
            tensor<int32, [1]> var_733_end_0 = const()[name = tensor<string, []>("op_733_end_0"), val = tensor<int32, [1]>([22640])];
            tensor<bool, [1]> var_733_end_mask_0 = const()[name = tensor<string, []>("op_733_end_mask_0"), val = tensor<bool, [1]>([false])];
            tensor<fp32, [400]> var_733 = slice_by_index(begin = var_733_begin_0, end = var_733_end_0, end_mask = var_733_end_mask_0, x = var_21)[name = tensor<string, []>("op_733")];
            tensor<int32, [1]> var_738_begin_0 = const()[name = tensor<string, []>("op_738_begin_0"), val = tensor<int32, [1]>([22400])];
            tensor<int32, [1]> var_738_end_0 = const()[name = tensor<string, []>("op_738_end_0"), val = tensor<int32, [1]>([22800])];
            tensor<bool, [1]> var_738_end_mask_0 = const()[name = tensor<string, []>("op_738_end_mask_0"), val = tensor<bool, [1]>([false])];
            tensor<fp32, [400]> var_738 = slice_by_index(begin = var_738_begin_0, end = var_738_end_0, end_mask = var_738_end_mask_0, x = var_21)[name = tensor<string, []>("op_738")];
            tensor<int32, [1]> var_743_begin_0 = const()[name = tensor<string, []>("op_743_begin_0"), val = tensor<int32, [1]>([22560])];
            tensor<int32, [1]> var_743_end_0 = const()[name = tensor<string, []>("op_743_end_0"), val = tensor<int32, [1]>([22960])];
            tensor<bool, [1]> var_743_end_mask_0 = const()[name = tensor<string, []>("op_743_end_mask_0"), val = tensor<bool, [1]>([false])];
            tensor<fp32, [400]> var_743 = slice_by_index(begin = var_743_begin_0, end = var_743_end_0, end_mask = var_743_end_mask_0, x = var_21)[name = tensor<string, []>("op_743")];
            tensor<int32, [1]> var_748_begin_0 = const()[name = tensor<string, []>("op_748_begin_0"), val = tensor<int32, [1]>([22720])];
            tensor<int32, [1]> var_748_end_0 = const()[name = tensor<string, []>("op_748_end_0"), val = tensor<int32, [1]>([23120])];
            tensor<bool, [1]> var_748_end_mask_0 = const()[name = tensor<string, []>("op_748_end_mask_0"), val = tensor<bool, [1]>([false])];
            tensor<fp32, [400]> var_748 = slice_by_index(begin = var_748_begin_0, end = var_748_end_0, end_mask = var_748_end_mask_0, x = var_21)[name = tensor<string, []>("op_748")];
            tensor<int32, [1]> var_753_begin_0 = const()[name = tensor<string, []>("op_753_begin_0"), val = tensor<int32, [1]>([22880])];
            tensor<int32, [1]> var_753_end_0 = const()[name = tensor<string, []>("op_753_end_0"), val = tensor<int32, [1]>([23280])];
            tensor<bool, [1]> var_753_end_mask_0 = const()[name = tensor<string, []>("op_753_end_mask_0"), val = tensor<bool, [1]>([false])];
            tensor<fp32, [400]> var_753 = slice_by_index(begin = var_753_begin_0, end = var_753_end_0, end_mask = var_753_end_mask_0, x = var_21)[name = tensor<string, []>("op_753")];
            tensor<int32, [1]> var_758_begin_0 = const()[name = tensor<string, []>("op_758_begin_0"), val = tensor<int32, [1]>([23040])];
            tensor<int32, [1]> var_758_end_0 = const()[name = tensor<string, []>("op_758_end_0"), val = tensor<int32, [1]>([23440])];
            tensor<bool, [1]> var_758_end_mask_0 = const()[name = tensor<string, []>("op_758_end_mask_0"), val = tensor<bool, [1]>([false])];
            tensor<fp32, [400]> var_758 = slice_by_index(begin = var_758_begin_0, end = var_758_end_0, end_mask = var_758_end_mask_0, x = var_21)[name = tensor<string, []>("op_758")];
            tensor<int32, [1]> var_763_begin_0 = const()[name = tensor<string, []>("op_763_begin_0"), val = tensor<int32, [1]>([23200])];
            tensor<int32, [1]> var_763_end_0 = const()[name = tensor<string, []>("op_763_end_0"), val = tensor<int32, [1]>([23600])];
            tensor<bool, [1]> var_763_end_mask_0 = const()[name = tensor<string, []>("op_763_end_mask_0"), val = tensor<bool, [1]>([false])];
            tensor<fp32, [400]> var_763 = slice_by_index(begin = var_763_begin_0, end = var_763_end_0, end_mask = var_763_end_mask_0, x = var_21)[name = tensor<string, []>("op_763")];
            tensor<int32, [1]> var_768_begin_0 = const()[name = tensor<string, []>("op_768_begin_0"), val = tensor<int32, [1]>([23360])];
            tensor<int32, [1]> var_768_end_0 = const()[name = tensor<string, []>("op_768_end_0"), val = tensor<int32, [1]>([23760])];
            tensor<bool, [1]> var_768_end_mask_0 = const()[name = tensor<string, []>("op_768_end_mask_0"), val = tensor<bool, [1]>([false])];
            tensor<fp32, [400]> var_768 = slice_by_index(begin = var_768_begin_0, end = var_768_end_0, end_mask = var_768_end_mask_0, x = var_21)[name = tensor<string, []>("op_768")];
            tensor<int32, [1]> var_773_begin_0 = const()[name = tensor<string, []>("op_773_begin_0"), val = tensor<int32, [1]>([23520])];
            tensor<int32, [1]> var_773_end_0 = const()[name = tensor<string, []>("op_773_end_0"), val = tensor<int32, [1]>([23920])];
            tensor<bool, [1]> var_773_end_mask_0 = const()[name = tensor<string, []>("op_773_end_mask_0"), val = tensor<bool, [1]>([false])];
            tensor<fp32, [400]> var_773 = slice_by_index(begin = var_773_begin_0, end = var_773_end_0, end_mask = var_773_end_mask_0, x = var_21)[name = tensor<string, []>("op_773")];
            tensor<int32, [1]> var_778_begin_0 = const()[name = tensor<string, []>("op_778_begin_0"), val = tensor<int32, [1]>([23680])];
            tensor<int32, [1]> var_778_end_0 = const()[name = tensor<string, []>("op_778_end_0"), val = tensor<int32, [1]>([24080])];
            tensor<bool, [1]> var_778_end_mask_0 = const()[name = tensor<string, []>("op_778_end_mask_0"), val = tensor<bool, [1]>([false])];
            tensor<fp32, [400]> var_778 = slice_by_index(begin = var_778_begin_0, end = var_778_end_0, end_mask = var_778_end_mask_0, x = var_21)[name = tensor<string, []>("op_778")];
            tensor<int32, [1]> var_783_begin_0 = const()[name = tensor<string, []>("op_783_begin_0"), val = tensor<int32, [1]>([23840])];
            tensor<int32, [1]> var_783_end_0 = const()[name = tensor<string, []>("op_783_end_0"), val = tensor<int32, [1]>([24240])];
            tensor<bool, [1]> var_783_end_mask_0 = const()[name = tensor<string, []>("op_783_end_mask_0"), val = tensor<bool, [1]>([false])];
            tensor<fp32, [400]> var_783 = slice_by_index(begin = var_783_begin_0, end = var_783_end_0, end_mask = var_783_end_mask_0, x = var_21)[name = tensor<string, []>("op_783")];
            tensor<int32, [1]> var_788_begin_0 = const()[name = tensor<string, []>("op_788_begin_0"), val = tensor<int32, [1]>([24000])];
            tensor<int32, [1]> var_788_end_0 = const()[name = tensor<string, []>("op_788_end_0"), val = tensor<int32, [1]>([24400])];
            tensor<bool, [1]> var_788_end_mask_0 = const()[name = tensor<string, []>("op_788_end_mask_0"), val = tensor<bool, [1]>([false])];
            tensor<fp32, [400]> var_788 = slice_by_index(begin = var_788_begin_0, end = var_788_end_0, end_mask = var_788_end_mask_0, x = var_21)[name = tensor<string, []>("op_788")];
            tensor<int32, [1]> var_793_begin_0 = const()[name = tensor<string, []>("op_793_begin_0"), val = tensor<int32, [1]>([24160])];
            tensor<int32, [1]> var_793_end_0 = const()[name = tensor<string, []>("op_793_end_0"), val = tensor<int32, [1]>([24560])];
            tensor<bool, [1]> var_793_end_mask_0 = const()[name = tensor<string, []>("op_793_end_mask_0"), val = tensor<bool, [1]>([false])];
            tensor<fp32, [400]> var_793 = slice_by_index(begin = var_793_begin_0, end = var_793_end_0, end_mask = var_793_end_mask_0, x = var_21)[name = tensor<string, []>("op_793")];
            tensor<int32, [1]> var_798_begin_0 = const()[name = tensor<string, []>("op_798_begin_0"), val = tensor<int32, [1]>([24320])];
            tensor<int32, [1]> var_798_end_0 = const()[name = tensor<string, []>("op_798_end_0"), val = tensor<int32, [1]>([24720])];
            tensor<bool, [1]> var_798_end_mask_0 = const()[name = tensor<string, []>("op_798_end_mask_0"), val = tensor<bool, [1]>([false])];
            tensor<fp32, [400]> var_798 = slice_by_index(begin = var_798_begin_0, end = var_798_end_0, end_mask = var_798_end_mask_0, x = var_21)[name = tensor<string, []>("op_798")];
            tensor<int32, [1]> var_803_begin_0 = const()[name = tensor<string, []>("op_803_begin_0"), val = tensor<int32, [1]>([24480])];
            tensor<int32, [1]> var_803_end_0 = const()[name = tensor<string, []>("op_803_end_0"), val = tensor<int32, [1]>([24880])];
            tensor<bool, [1]> var_803_end_mask_0 = const()[name = tensor<string, []>("op_803_end_mask_0"), val = tensor<bool, [1]>([false])];
            tensor<fp32, [400]> var_803 = slice_by_index(begin = var_803_begin_0, end = var_803_end_0, end_mask = var_803_end_mask_0, x = var_21)[name = tensor<string, []>("op_803")];
            tensor<int32, [1]> var_808_begin_0 = const()[name = tensor<string, []>("op_808_begin_0"), val = tensor<int32, [1]>([24640])];
            tensor<int32, [1]> var_808_end_0 = const()[name = tensor<string, []>("op_808_end_0"), val = tensor<int32, [1]>([25040])];
            tensor<bool, [1]> var_808_end_mask_0 = const()[name = tensor<string, []>("op_808_end_mask_0"), val = tensor<bool, [1]>([false])];
            tensor<fp32, [400]> var_808 = slice_by_index(begin = var_808_begin_0, end = var_808_end_0, end_mask = var_808_end_mask_0, x = var_21)[name = tensor<string, []>("op_808")];
            tensor<int32, [1]> var_813_begin_0 = const()[name = tensor<string, []>("op_813_begin_0"), val = tensor<int32, [1]>([24800])];
            tensor<int32, [1]> var_813_end_0 = const()[name = tensor<string, []>("op_813_end_0"), val = tensor<int32, [1]>([25200])];
            tensor<bool, [1]> var_813_end_mask_0 = const()[name = tensor<string, []>("op_813_end_mask_0"), val = tensor<bool, [1]>([false])];
            tensor<fp32, [400]> var_813 = slice_by_index(begin = var_813_begin_0, end = var_813_end_0, end_mask = var_813_end_mask_0, x = var_21)[name = tensor<string, []>("op_813")];
            tensor<int32, [1]> var_818_begin_0 = const()[name = tensor<string, []>("op_818_begin_0"), val = tensor<int32, [1]>([24960])];
            tensor<int32, [1]> var_818_end_0 = const()[name = tensor<string, []>("op_818_end_0"), val = tensor<int32, [1]>([25360])];
            tensor<bool, [1]> var_818_end_mask_0 = const()[name = tensor<string, []>("op_818_end_mask_0"), val = tensor<bool, [1]>([false])];
            tensor<fp32, [400]> var_818 = slice_by_index(begin = var_818_begin_0, end = var_818_end_0, end_mask = var_818_end_mask_0, x = var_21)[name = tensor<string, []>("op_818")];
            tensor<int32, [1]> var_823_begin_0 = const()[name = tensor<string, []>("op_823_begin_0"), val = tensor<int32, [1]>([25120])];
            tensor<int32, [1]> var_823_end_0 = const()[name = tensor<string, []>("op_823_end_0"), val = tensor<int32, [1]>([25520])];
            tensor<bool, [1]> var_823_end_mask_0 = const()[name = tensor<string, []>("op_823_end_mask_0"), val = tensor<bool, [1]>([false])];
            tensor<fp32, [400]> var_823 = slice_by_index(begin = var_823_begin_0, end = var_823_end_0, end_mask = var_823_end_mask_0, x = var_21)[name = tensor<string, []>("op_823")];
            tensor<int32, [1]> var_828_begin_0 = const()[name = tensor<string, []>("op_828_begin_0"), val = tensor<int32, [1]>([25280])];
            tensor<int32, [1]> var_828_end_0 = const()[name = tensor<string, []>("op_828_end_0"), val = tensor<int32, [1]>([25680])];
            tensor<bool, [1]> var_828_end_mask_0 = const()[name = tensor<string, []>("op_828_end_mask_0"), val = tensor<bool, [1]>([false])];
            tensor<fp32, [400]> var_828 = slice_by_index(begin = var_828_begin_0, end = var_828_end_0, end_mask = var_828_end_mask_0, x = var_21)[name = tensor<string, []>("op_828")];
            tensor<int32, [1]> var_833_begin_0 = const()[name = tensor<string, []>("op_833_begin_0"), val = tensor<int32, [1]>([25440])];
            tensor<int32, [1]> var_833_end_0 = const()[name = tensor<string, []>("op_833_end_0"), val = tensor<int32, [1]>([25840])];
            tensor<bool, [1]> var_833_end_mask_0 = const()[name = tensor<string, []>("op_833_end_mask_0"), val = tensor<bool, [1]>([false])];
            tensor<fp32, [400]> var_833 = slice_by_index(begin = var_833_begin_0, end = var_833_end_0, end_mask = var_833_end_mask_0, x = var_21)[name = tensor<string, []>("op_833")];
            tensor<int32, [1]> var_838_begin_0 = const()[name = tensor<string, []>("op_838_begin_0"), val = tensor<int32, [1]>([25600])];
            tensor<int32, [1]> var_838_end_0 = const()[name = tensor<string, []>("op_838_end_0"), val = tensor<int32, [1]>([26000])];
            tensor<bool, [1]> var_838_end_mask_0 = const()[name = tensor<string, []>("op_838_end_mask_0"), val = tensor<bool, [1]>([false])];
            tensor<fp32, [400]> var_838 = slice_by_index(begin = var_838_begin_0, end = var_838_end_0, end_mask = var_838_end_mask_0, x = var_21)[name = tensor<string, []>("op_838")];
            tensor<int32, [1]> var_843_begin_0 = const()[name = tensor<string, []>("op_843_begin_0"), val = tensor<int32, [1]>([25760])];
            tensor<int32, [1]> var_843_end_0 = const()[name = tensor<string, []>("op_843_end_0"), val = tensor<int32, [1]>([26160])];
            tensor<bool, [1]> var_843_end_mask_0 = const()[name = tensor<string, []>("op_843_end_mask_0"), val = tensor<bool, [1]>([false])];
            tensor<fp32, [400]> var_843 = slice_by_index(begin = var_843_begin_0, end = var_843_end_0, end_mask = var_843_end_mask_0, x = var_21)[name = tensor<string, []>("op_843")];
            tensor<int32, [1]> var_848_begin_0 = const()[name = tensor<string, []>("op_848_begin_0"), val = tensor<int32, [1]>([25920])];
            tensor<int32, [1]> var_848_end_0 = const()[name = tensor<string, []>("op_848_end_0"), val = tensor<int32, [1]>([26320])];
            tensor<bool, [1]> var_848_end_mask_0 = const()[name = tensor<string, []>("op_848_end_mask_0"), val = tensor<bool, [1]>([false])];
            tensor<fp32, [400]> var_848 = slice_by_index(begin = var_848_begin_0, end = var_848_end_0, end_mask = var_848_end_mask_0, x = var_21)[name = tensor<string, []>("op_848")];
            tensor<int32, [1]> var_853_begin_0 = const()[name = tensor<string, []>("op_853_begin_0"), val = tensor<int32, [1]>([26080])];
            tensor<int32, [1]> var_853_end_0 = const()[name = tensor<string, []>("op_853_end_0"), val = tensor<int32, [1]>([26480])];
            tensor<bool, [1]> var_853_end_mask_0 = const()[name = tensor<string, []>("op_853_end_mask_0"), val = tensor<bool, [1]>([false])];
            tensor<fp32, [400]> var_853 = slice_by_index(begin = var_853_begin_0, end = var_853_end_0, end_mask = var_853_end_mask_0, x = var_21)[name = tensor<string, []>("op_853")];
            tensor<int32, [1]> var_858_begin_0 = const()[name = tensor<string, []>("op_858_begin_0"), val = tensor<int32, [1]>([26240])];
            tensor<int32, [1]> var_858_end_0 = const()[name = tensor<string, []>("op_858_end_0"), val = tensor<int32, [1]>([26640])];
            tensor<bool, [1]> var_858_end_mask_0 = const()[name = tensor<string, []>("op_858_end_mask_0"), val = tensor<bool, [1]>([false])];
            tensor<fp32, [400]> var_858 = slice_by_index(begin = var_858_begin_0, end = var_858_end_0, end_mask = var_858_end_mask_0, x = var_21)[name = tensor<string, []>("op_858")];
            tensor<int32, [1]> var_863_begin_0 = const()[name = tensor<string, []>("op_863_begin_0"), val = tensor<int32, [1]>([26400])];
            tensor<int32, [1]> var_863_end_0 = const()[name = tensor<string, []>("op_863_end_0"), val = tensor<int32, [1]>([26800])];
            tensor<bool, [1]> var_863_end_mask_0 = const()[name = tensor<string, []>("op_863_end_mask_0"), val = tensor<bool, [1]>([false])];
            tensor<fp32, [400]> var_863 = slice_by_index(begin = var_863_begin_0, end = var_863_end_0, end_mask = var_863_end_mask_0, x = var_21)[name = tensor<string, []>("op_863")];
            tensor<int32, [1]> var_868_begin_0 = const()[name = tensor<string, []>("op_868_begin_0"), val = tensor<int32, [1]>([26560])];
            tensor<int32, [1]> var_868_end_0 = const()[name = tensor<string, []>("op_868_end_0"), val = tensor<int32, [1]>([26960])];
            tensor<bool, [1]> var_868_end_mask_0 = const()[name = tensor<string, []>("op_868_end_mask_0"), val = tensor<bool, [1]>([false])];
            tensor<fp32, [400]> var_868 = slice_by_index(begin = var_868_begin_0, end = var_868_end_0, end_mask = var_868_end_mask_0, x = var_21)[name = tensor<string, []>("op_868")];
            tensor<int32, [1]> var_873_begin_0 = const()[name = tensor<string, []>("op_873_begin_0"), val = tensor<int32, [1]>([26720])];
            tensor<int32, [1]> var_873_end_0 = const()[name = tensor<string, []>("op_873_end_0"), val = tensor<int32, [1]>([27120])];
            tensor<bool, [1]> var_873_end_mask_0 = const()[name = tensor<string, []>("op_873_end_mask_0"), val = tensor<bool, [1]>([false])];
            tensor<fp32, [400]> var_873 = slice_by_index(begin = var_873_begin_0, end = var_873_end_0, end_mask = var_873_end_mask_0, x = var_21)[name = tensor<string, []>("op_873")];
            tensor<int32, [1]> var_878_begin_0 = const()[name = tensor<string, []>("op_878_begin_0"), val = tensor<int32, [1]>([26880])];
            tensor<int32, [1]> var_878_end_0 = const()[name = tensor<string, []>("op_878_end_0"), val = tensor<int32, [1]>([27280])];
            tensor<bool, [1]> var_878_end_mask_0 = const()[name = tensor<string, []>("op_878_end_mask_0"), val = tensor<bool, [1]>([false])];
            tensor<fp32, [400]> var_878 = slice_by_index(begin = var_878_begin_0, end = var_878_end_0, end_mask = var_878_end_mask_0, x = var_21)[name = tensor<string, []>("op_878")];
            tensor<int32, [1]> var_883_begin_0 = const()[name = tensor<string, []>("op_883_begin_0"), val = tensor<int32, [1]>([27040])];
            tensor<int32, [1]> var_883_end_0 = const()[name = tensor<string, []>("op_883_end_0"), val = tensor<int32, [1]>([27440])];
            tensor<bool, [1]> var_883_end_mask_0 = const()[name = tensor<string, []>("op_883_end_mask_0"), val = tensor<bool, [1]>([false])];
            tensor<fp32, [400]> var_883 = slice_by_index(begin = var_883_begin_0, end = var_883_end_0, end_mask = var_883_end_mask_0, x = var_21)[name = tensor<string, []>("op_883")];
            tensor<int32, [1]> var_888_begin_0 = const()[name = tensor<string, []>("op_888_begin_0"), val = tensor<int32, [1]>([27200])];
            tensor<int32, [1]> var_888_end_0 = const()[name = tensor<string, []>("op_888_end_0"), val = tensor<int32, [1]>([27600])];
            tensor<bool, [1]> var_888_end_mask_0 = const()[name = tensor<string, []>("op_888_end_mask_0"), val = tensor<bool, [1]>([false])];
            tensor<fp32, [400]> var_888 = slice_by_index(begin = var_888_begin_0, end = var_888_end_0, end_mask = var_888_end_mask_0, x = var_21)[name = tensor<string, []>("op_888")];
            tensor<int32, [1]> var_893_begin_0 = const()[name = tensor<string, []>("op_893_begin_0"), val = tensor<int32, [1]>([27360])];
            tensor<int32, [1]> var_893_end_0 = const()[name = tensor<string, []>("op_893_end_0"), val = tensor<int32, [1]>([27760])];
            tensor<bool, [1]> var_893_end_mask_0 = const()[name = tensor<string, []>("op_893_end_mask_0"), val = tensor<bool, [1]>([false])];
            tensor<fp32, [400]> var_893 = slice_by_index(begin = var_893_begin_0, end = var_893_end_0, end_mask = var_893_end_mask_0, x = var_21)[name = tensor<string, []>("op_893")];
            tensor<int32, [1]> var_898_begin_0 = const()[name = tensor<string, []>("op_898_begin_0"), val = tensor<int32, [1]>([27520])];
            tensor<int32, [1]> var_898_end_0 = const()[name = tensor<string, []>("op_898_end_0"), val = tensor<int32, [1]>([27920])];
            tensor<bool, [1]> var_898_end_mask_0 = const()[name = tensor<string, []>("op_898_end_mask_0"), val = tensor<bool, [1]>([false])];
            tensor<fp32, [400]> var_898 = slice_by_index(begin = var_898_begin_0, end = var_898_end_0, end_mask = var_898_end_mask_0, x = var_21)[name = tensor<string, []>("op_898")];
            tensor<int32, [1]> var_903_begin_0 = const()[name = tensor<string, []>("op_903_begin_0"), val = tensor<int32, [1]>([27680])];
            tensor<int32, [1]> var_903_end_0 = const()[name = tensor<string, []>("op_903_end_0"), val = tensor<int32, [1]>([28080])];
            tensor<bool, [1]> var_903_end_mask_0 = const()[name = tensor<string, []>("op_903_end_mask_0"), val = tensor<bool, [1]>([false])];
            tensor<fp32, [400]> var_903 = slice_by_index(begin = var_903_begin_0, end = var_903_end_0, end_mask = var_903_end_mask_0, x = var_21)[name = tensor<string, []>("op_903")];
            tensor<int32, [1]> var_908_begin_0 = const()[name = tensor<string, []>("op_908_begin_0"), val = tensor<int32, [1]>([27840])];
            tensor<int32, [1]> var_908_end_0 = const()[name = tensor<string, []>("op_908_end_0"), val = tensor<int32, [1]>([28240])];
            tensor<bool, [1]> var_908_end_mask_0 = const()[name = tensor<string, []>("op_908_end_mask_0"), val = tensor<bool, [1]>([false])];
            tensor<fp32, [400]> var_908 = slice_by_index(begin = var_908_begin_0, end = var_908_end_0, end_mask = var_908_end_mask_0, x = var_21)[name = tensor<string, []>("op_908")];
            tensor<int32, [1]> var_913_begin_0 = const()[name = tensor<string, []>("op_913_begin_0"), val = tensor<int32, [1]>([28000])];
            tensor<int32, [1]> var_913_end_0 = const()[name = tensor<string, []>("op_913_end_0"), val = tensor<int32, [1]>([28400])];
            tensor<bool, [1]> var_913_end_mask_0 = const()[name = tensor<string, []>("op_913_end_mask_0"), val = tensor<bool, [1]>([false])];
            tensor<fp32, [400]> var_913 = slice_by_index(begin = var_913_begin_0, end = var_913_end_0, end_mask = var_913_end_mask_0, x = var_21)[name = tensor<string, []>("op_913")];
            tensor<int32, [1]> var_918_begin_0 = const()[name = tensor<string, []>("op_918_begin_0"), val = tensor<int32, [1]>([28160])];
            tensor<int32, [1]> var_918_end_0 = const()[name = tensor<string, []>("op_918_end_0"), val = tensor<int32, [1]>([28560])];
            tensor<bool, [1]> var_918_end_mask_0 = const()[name = tensor<string, []>("op_918_end_mask_0"), val = tensor<bool, [1]>([false])];
            tensor<fp32, [400]> var_918 = slice_by_index(begin = var_918_begin_0, end = var_918_end_0, end_mask = var_918_end_mask_0, x = var_21)[name = tensor<string, []>("op_918")];
            tensor<int32, [1]> var_923_begin_0 = const()[name = tensor<string, []>("op_923_begin_0"), val = tensor<int32, [1]>([28320])];
            tensor<int32, [1]> var_923_end_0 = const()[name = tensor<string, []>("op_923_end_0"), val = tensor<int32, [1]>([28720])];
            tensor<bool, [1]> var_923_end_mask_0 = const()[name = tensor<string, []>("op_923_end_mask_0"), val = tensor<bool, [1]>([false])];
            tensor<fp32, [400]> var_923 = slice_by_index(begin = var_923_begin_0, end = var_923_end_0, end_mask = var_923_end_mask_0, x = var_21)[name = tensor<string, []>("op_923")];
            tensor<int32, [1]> var_928_begin_0 = const()[name = tensor<string, []>("op_928_begin_0"), val = tensor<int32, [1]>([28480])];
            tensor<int32, [1]> var_928_end_0 = const()[name = tensor<string, []>("op_928_end_0"), val = tensor<int32, [1]>([28880])];
            tensor<bool, [1]> var_928_end_mask_0 = const()[name = tensor<string, []>("op_928_end_mask_0"), val = tensor<bool, [1]>([false])];
            tensor<fp32, [400]> var_928 = slice_by_index(begin = var_928_begin_0, end = var_928_end_0, end_mask = var_928_end_mask_0, x = var_21)[name = tensor<string, []>("op_928")];
            tensor<int32, [1]> var_933_begin_0 = const()[name = tensor<string, []>("op_933_begin_0"), val = tensor<int32, [1]>([28640])];
            tensor<int32, [1]> var_933_end_0 = const()[name = tensor<string, []>("op_933_end_0"), val = tensor<int32, [1]>([29040])];
            tensor<bool, [1]> var_933_end_mask_0 = const()[name = tensor<string, []>("op_933_end_mask_0"), val = tensor<bool, [1]>([false])];
            tensor<fp32, [400]> var_933 = slice_by_index(begin = var_933_begin_0, end = var_933_end_0, end_mask = var_933_end_mask_0, x = var_21)[name = tensor<string, []>("op_933")];
            tensor<int32, [1]> var_938_begin_0 = const()[name = tensor<string, []>("op_938_begin_0"), val = tensor<int32, [1]>([28800])];
            tensor<int32, [1]> var_938_end_0 = const()[name = tensor<string, []>("op_938_end_0"), val = tensor<int32, [1]>([29200])];
            tensor<bool, [1]> var_938_end_mask_0 = const()[name = tensor<string, []>("op_938_end_mask_0"), val = tensor<bool, [1]>([false])];
            tensor<fp32, [400]> var_938 = slice_by_index(begin = var_938_begin_0, end = var_938_end_0, end_mask = var_938_end_mask_0, x = var_21)[name = tensor<string, []>("op_938")];
            tensor<int32, [1]> var_943_begin_0 = const()[name = tensor<string, []>("op_943_begin_0"), val = tensor<int32, [1]>([28960])];
            tensor<int32, [1]> var_943_end_0 = const()[name = tensor<string, []>("op_943_end_0"), val = tensor<int32, [1]>([29360])];
            tensor<bool, [1]> var_943_end_mask_0 = const()[name = tensor<string, []>("op_943_end_mask_0"), val = tensor<bool, [1]>([false])];
            tensor<fp32, [400]> var_943 = slice_by_index(begin = var_943_begin_0, end = var_943_end_0, end_mask = var_943_end_mask_0, x = var_21)[name = tensor<string, []>("op_943")];
            tensor<int32, [1]> var_948_begin_0 = const()[name = tensor<string, []>("op_948_begin_0"), val = tensor<int32, [1]>([29120])];
            tensor<int32, [1]> var_948_end_0 = const()[name = tensor<string, []>("op_948_end_0"), val = tensor<int32, [1]>([29520])];
            tensor<bool, [1]> var_948_end_mask_0 = const()[name = tensor<string, []>("op_948_end_mask_0"), val = tensor<bool, [1]>([false])];
            tensor<fp32, [400]> var_948 = slice_by_index(begin = var_948_begin_0, end = var_948_end_0, end_mask = var_948_end_mask_0, x = var_21)[name = tensor<string, []>("op_948")];
            tensor<int32, [1]> var_953_begin_0 = const()[name = tensor<string, []>("op_953_begin_0"), val = tensor<int32, [1]>([29280])];
            tensor<int32, [1]> var_953_end_0 = const()[name = tensor<string, []>("op_953_end_0"), val = tensor<int32, [1]>([29680])];
            tensor<bool, [1]> var_953_end_mask_0 = const()[name = tensor<string, []>("op_953_end_mask_0"), val = tensor<bool, [1]>([false])];
            tensor<fp32, [400]> var_953 = slice_by_index(begin = var_953_begin_0, end = var_953_end_0, end_mask = var_953_end_mask_0, x = var_21)[name = tensor<string, []>("op_953")];
            tensor<int32, [1]> var_958_begin_0 = const()[name = tensor<string, []>("op_958_begin_0"), val = tensor<int32, [1]>([29440])];
            tensor<int32, [1]> var_958_end_0 = const()[name = tensor<string, []>("op_958_end_0"), val = tensor<int32, [1]>([29840])];
            tensor<bool, [1]> var_958_end_mask_0 = const()[name = tensor<string, []>("op_958_end_mask_0"), val = tensor<bool, [1]>([false])];
            tensor<fp32, [400]> var_958 = slice_by_index(begin = var_958_begin_0, end = var_958_end_0, end_mask = var_958_end_mask_0, x = var_21)[name = tensor<string, []>("op_958")];
            tensor<int32, [1]> var_963_begin_0 = const()[name = tensor<string, []>("op_963_begin_0"), val = tensor<int32, [1]>([29600])];
            tensor<int32, [1]> var_963_end_0 = const()[name = tensor<string, []>("op_963_end_0"), val = tensor<int32, [1]>([30000])];
            tensor<bool, [1]> var_963_end_mask_0 = const()[name = tensor<string, []>("op_963_end_mask_0"), val = tensor<bool, [1]>([false])];
            tensor<fp32, [400]> var_963 = slice_by_index(begin = var_963_begin_0, end = var_963_end_0, end_mask = var_963_end_mask_0, x = var_21)[name = tensor<string, []>("op_963")];
            tensor<int32, [1]> var_968_begin_0 = const()[name = tensor<string, []>("op_968_begin_0"), val = tensor<int32, [1]>([29760])];
            tensor<int32, [1]> var_968_end_0 = const()[name = tensor<string, []>("op_968_end_0"), val = tensor<int32, [1]>([30160])];
            tensor<bool, [1]> var_968_end_mask_0 = const()[name = tensor<string, []>("op_968_end_mask_0"), val = tensor<bool, [1]>([false])];
            tensor<fp32, [400]> var_968 = slice_by_index(begin = var_968_begin_0, end = var_968_end_0, end_mask = var_968_end_mask_0, x = var_21)[name = tensor<string, []>("op_968")];
            tensor<int32, [1]> var_973_begin_0 = const()[name = tensor<string, []>("op_973_begin_0"), val = tensor<int32, [1]>([29920])];
            tensor<int32, [1]> var_973_end_0 = const()[name = tensor<string, []>("op_973_end_0"), val = tensor<int32, [1]>([30320])];
            tensor<bool, [1]> var_973_end_mask_0 = const()[name = tensor<string, []>("op_973_end_mask_0"), val = tensor<bool, [1]>([false])];
            tensor<fp32, [400]> var_973 = slice_by_index(begin = var_973_begin_0, end = var_973_end_0, end_mask = var_973_end_mask_0, x = var_21)[name = tensor<string, []>("op_973")];
            tensor<int32, [1]> var_978_begin_0 = const()[name = tensor<string, []>("op_978_begin_0"), val = tensor<int32, [1]>([30080])];
            tensor<int32, [1]> var_978_end_0 = const()[name = tensor<string, []>("op_978_end_0"), val = tensor<int32, [1]>([30480])];
            tensor<bool, [1]> var_978_end_mask_0 = const()[name = tensor<string, []>("op_978_end_mask_0"), val = tensor<bool, [1]>([false])];
            tensor<fp32, [400]> var_978 = slice_by_index(begin = var_978_begin_0, end = var_978_end_0, end_mask = var_978_end_mask_0, x = var_21)[name = tensor<string, []>("op_978")];
            tensor<int32, [1]> var_983_begin_0 = const()[name = tensor<string, []>("op_983_begin_0"), val = tensor<int32, [1]>([30240])];
            tensor<int32, [1]> var_983_end_0 = const()[name = tensor<string, []>("op_983_end_0"), val = tensor<int32, [1]>([30640])];
            tensor<bool, [1]> var_983_end_mask_0 = const()[name = tensor<string, []>("op_983_end_mask_0"), val = tensor<bool, [1]>([false])];
            tensor<fp32, [400]> var_983 = slice_by_index(begin = var_983_begin_0, end = var_983_end_0, end_mask = var_983_end_mask_0, x = var_21)[name = tensor<string, []>("op_983")];
            tensor<int32, [1]> var_988_begin_0 = const()[name = tensor<string, []>("op_988_begin_0"), val = tensor<int32, [1]>([30400])];
            tensor<int32, [1]> var_988_end_0 = const()[name = tensor<string, []>("op_988_end_0"), val = tensor<int32, [1]>([30800])];
            tensor<bool, [1]> var_988_end_mask_0 = const()[name = tensor<string, []>("op_988_end_mask_0"), val = tensor<bool, [1]>([false])];
            tensor<fp32, [400]> var_988 = slice_by_index(begin = var_988_begin_0, end = var_988_end_0, end_mask = var_988_end_mask_0, x = var_21)[name = tensor<string, []>("op_988")];
            tensor<int32, [1]> var_993_begin_0 = const()[name = tensor<string, []>("op_993_begin_0"), val = tensor<int32, [1]>([30560])];
            tensor<int32, [1]> var_993_end_0 = const()[name = tensor<string, []>("op_993_end_0"), val = tensor<int32, [1]>([30960])];
            tensor<bool, [1]> var_993_end_mask_0 = const()[name = tensor<string, []>("op_993_end_mask_0"), val = tensor<bool, [1]>([false])];
            tensor<fp32, [400]> var_993 = slice_by_index(begin = var_993_begin_0, end = var_993_end_0, end_mask = var_993_end_mask_0, x = var_21)[name = tensor<string, []>("op_993")];
            tensor<int32, [1]> var_998_begin_0 = const()[name = tensor<string, []>("op_998_begin_0"), val = tensor<int32, [1]>([30720])];
            tensor<int32, [1]> var_998_end_0 = const()[name = tensor<string, []>("op_998_end_0"), val = tensor<int32, [1]>([31120])];
            tensor<bool, [1]> var_998_end_mask_0 = const()[name = tensor<string, []>("op_998_end_mask_0"), val = tensor<bool, [1]>([false])];
            tensor<fp32, [400]> var_998 = slice_by_index(begin = var_998_begin_0, end = var_998_end_0, end_mask = var_998_end_mask_0, x = var_21)[name = tensor<string, []>("op_998")];
            tensor<int32, [1]> var_1003_begin_0 = const()[name = tensor<string, []>("op_1003_begin_0"), val = tensor<int32, [1]>([30880])];
            tensor<int32, [1]> var_1003_end_0 = const()[name = tensor<string, []>("op_1003_end_0"), val = tensor<int32, [1]>([31280])];
            tensor<bool, [1]> var_1003_end_mask_0 = const()[name = tensor<string, []>("op_1003_end_mask_0"), val = tensor<bool, [1]>([false])];
            tensor<fp32, [400]> var_1003 = slice_by_index(begin = var_1003_begin_0, end = var_1003_end_0, end_mask = var_1003_end_mask_0, x = var_21)[name = tensor<string, []>("op_1003")];
            tensor<int32, [1]> var_1008_begin_0 = const()[name = tensor<string, []>("op_1008_begin_0"), val = tensor<int32, [1]>([31040])];
            tensor<int32, [1]> var_1008_end_0 = const()[name = tensor<string, []>("op_1008_end_0"), val = tensor<int32, [1]>([31440])];
            tensor<bool, [1]> var_1008_end_mask_0 = const()[name = tensor<string, []>("op_1008_end_mask_0"), val = tensor<bool, [1]>([false])];
            tensor<fp32, [400]> var_1008 = slice_by_index(begin = var_1008_begin_0, end = var_1008_end_0, end_mask = var_1008_end_mask_0, x = var_21)[name = tensor<string, []>("op_1008")];
            tensor<int32, [1]> var_1013_begin_0 = const()[name = tensor<string, []>("op_1013_begin_0"), val = tensor<int32, [1]>([31200])];
            tensor<int32, [1]> var_1013_end_0 = const()[name = tensor<string, []>("op_1013_end_0"), val = tensor<int32, [1]>([31600])];
            tensor<bool, [1]> var_1013_end_mask_0 = const()[name = tensor<string, []>("op_1013_end_mask_0"), val = tensor<bool, [1]>([false])];
            tensor<fp32, [400]> var_1013 = slice_by_index(begin = var_1013_begin_0, end = var_1013_end_0, end_mask = var_1013_end_mask_0, x = var_21)[name = tensor<string, []>("op_1013")];
            tensor<int32, [1]> var_1018_begin_0 = const()[name = tensor<string, []>("op_1018_begin_0"), val = tensor<int32, [1]>([31360])];
            tensor<int32, [1]> var_1018_end_0 = const()[name = tensor<string, []>("op_1018_end_0"), val = tensor<int32, [1]>([31760])];
            tensor<bool, [1]> var_1018_end_mask_0 = const()[name = tensor<string, []>("op_1018_end_mask_0"), val = tensor<bool, [1]>([false])];
            tensor<fp32, [400]> var_1018 = slice_by_index(begin = var_1018_begin_0, end = var_1018_end_0, end_mask = var_1018_end_mask_0, x = var_21)[name = tensor<string, []>("op_1018")];
            tensor<int32, [1]> var_1023_begin_0 = const()[name = tensor<string, []>("op_1023_begin_0"), val = tensor<int32, [1]>([31520])];
            tensor<int32, [1]> var_1023_end_0 = const()[name = tensor<string, []>("op_1023_end_0"), val = tensor<int32, [1]>([31920])];
            tensor<bool, [1]> var_1023_end_mask_0 = const()[name = tensor<string, []>("op_1023_end_mask_0"), val = tensor<bool, [1]>([false])];
            tensor<fp32, [400]> var_1023 = slice_by_index(begin = var_1023_begin_0, end = var_1023_end_0, end_mask = var_1023_end_mask_0, x = var_21)[name = tensor<string, []>("op_1023")];
            tensor<int32, [1]> var_1028_begin_0 = const()[name = tensor<string, []>("op_1028_begin_0"), val = tensor<int32, [1]>([31680])];
            tensor<int32, [1]> var_1028_end_0 = const()[name = tensor<string, []>("op_1028_end_0"), val = tensor<int32, [1]>([32080])];
            tensor<bool, [1]> var_1028_end_mask_0 = const()[name = tensor<string, []>("op_1028_end_mask_0"), val = tensor<bool, [1]>([false])];
            tensor<fp32, [400]> var_1028 = slice_by_index(begin = var_1028_begin_0, end = var_1028_end_0, end_mask = var_1028_end_mask_0, x = var_21)[name = tensor<string, []>("op_1028")];
            tensor<int32, [1]> var_1033_begin_0 = const()[name = tensor<string, []>("op_1033_begin_0"), val = tensor<int32, [1]>([31840])];
            tensor<int32, [1]> var_1033_end_0 = const()[name = tensor<string, []>("op_1033_end_0"), val = tensor<int32, [1]>([32240])];
            tensor<bool, [1]> var_1033_end_mask_0 = const()[name = tensor<string, []>("op_1033_end_mask_0"), val = tensor<bool, [1]>([false])];
            tensor<fp32, [400]> var_1033 = slice_by_index(begin = var_1033_begin_0, end = var_1033_end_0, end_mask = var_1033_end_mask_0, x = var_21)[name = tensor<string, []>("op_1033")];
            tensor<int32, [1]> var_1038_begin_0 = const()[name = tensor<string, []>("op_1038_begin_0"), val = tensor<int32, [1]>([32000])];
            tensor<int32, [1]> var_1038_end_0 = const()[name = tensor<string, []>("op_1038_end_0"), val = tensor<int32, [1]>([32400])];
            tensor<bool, [1]> var_1038_end_mask_0 = const()[name = tensor<string, []>("op_1038_end_mask_0"), val = tensor<bool, [1]>([false])];
            tensor<fp32, [400]> var_1038 = slice_by_index(begin = var_1038_begin_0, end = var_1038_end_0, end_mask = var_1038_end_mask_0, x = var_21)[name = tensor<string, []>("op_1038")];
            tensor<int32, [1]> var_1043_begin_0 = const()[name = tensor<string, []>("op_1043_begin_0"), val = tensor<int32, [1]>([32160])];
            tensor<int32, [1]> var_1043_end_0 = const()[name = tensor<string, []>("op_1043_end_0"), val = tensor<int32, [1]>([32560])];
            tensor<bool, [1]> var_1043_end_mask_0 = const()[name = tensor<string, []>("op_1043_end_mask_0"), val = tensor<bool, [1]>([false])];
            tensor<fp32, [400]> var_1043 = slice_by_index(begin = var_1043_begin_0, end = var_1043_end_0, end_mask = var_1043_end_mask_0, x = var_21)[name = tensor<string, []>("op_1043")];
            tensor<int32, [1]> var_1048_begin_0 = const()[name = tensor<string, []>("op_1048_begin_0"), val = tensor<int32, [1]>([32320])];
            tensor<int32, [1]> var_1048_end_0 = const()[name = tensor<string, []>("op_1048_end_0"), val = tensor<int32, [1]>([32720])];
            tensor<bool, [1]> var_1048_end_mask_0 = const()[name = tensor<string, []>("op_1048_end_mask_0"), val = tensor<bool, [1]>([false])];
            tensor<fp32, [400]> var_1048 = slice_by_index(begin = var_1048_begin_0, end = var_1048_end_0, end_mask = var_1048_end_mask_0, x = var_21)[name = tensor<string, []>("op_1048")];
            tensor<int32, [1]> var_1053_begin_0 = const()[name = tensor<string, []>("op_1053_begin_0"), val = tensor<int32, [1]>([32480])];
            tensor<int32, [1]> var_1053_end_0 = const()[name = tensor<string, []>("op_1053_end_0"), val = tensor<int32, [1]>([32880])];
            tensor<bool, [1]> var_1053_end_mask_0 = const()[name = tensor<string, []>("op_1053_end_mask_0"), val = tensor<bool, [1]>([false])];
            tensor<fp32, [400]> var_1053 = slice_by_index(begin = var_1053_begin_0, end = var_1053_end_0, end_mask = var_1053_end_mask_0, x = var_21)[name = tensor<string, []>("op_1053")];
            tensor<int32, [1]> var_1058_begin_0 = const()[name = tensor<string, []>("op_1058_begin_0"), val = tensor<int32, [1]>([32640])];
            tensor<int32, [1]> var_1058_end_0 = const()[name = tensor<string, []>("op_1058_end_0"), val = tensor<int32, [1]>([33040])];
            tensor<bool, [1]> var_1058_end_mask_0 = const()[name = tensor<string, []>("op_1058_end_mask_0"), val = tensor<bool, [1]>([false])];
            tensor<fp32, [400]> var_1058 = slice_by_index(begin = var_1058_begin_0, end = var_1058_end_0, end_mask = var_1058_end_mask_0, x = var_21)[name = tensor<string, []>("op_1058")];
            tensor<int32, [1]> var_1063_begin_0 = const()[name = tensor<string, []>("op_1063_begin_0"), val = tensor<int32, [1]>([32800])];
            tensor<int32, [1]> var_1063_end_0 = const()[name = tensor<string, []>("op_1063_end_0"), val = tensor<int32, [1]>([33200])];
            tensor<bool, [1]> var_1063_end_mask_0 = const()[name = tensor<string, []>("op_1063_end_mask_0"), val = tensor<bool, [1]>([false])];
            tensor<fp32, [400]> var_1063 = slice_by_index(begin = var_1063_begin_0, end = var_1063_end_0, end_mask = var_1063_end_mask_0, x = var_21)[name = tensor<string, []>("op_1063")];
            tensor<int32, [1]> var_1068_begin_0 = const()[name = tensor<string, []>("op_1068_begin_0"), val = tensor<int32, [1]>([32960])];
            tensor<int32, [1]> var_1068_end_0 = const()[name = tensor<string, []>("op_1068_end_0"), val = tensor<int32, [1]>([33360])];
            tensor<bool, [1]> var_1068_end_mask_0 = const()[name = tensor<string, []>("op_1068_end_mask_0"), val = tensor<bool, [1]>([false])];
            tensor<fp32, [400]> var_1068 = slice_by_index(begin = var_1068_begin_0, end = var_1068_end_0, end_mask = var_1068_end_mask_0, x = var_21)[name = tensor<string, []>("op_1068")];
            tensor<int32, [1]> var_1073_begin_0 = const()[name = tensor<string, []>("op_1073_begin_0"), val = tensor<int32, [1]>([33120])];
            tensor<int32, [1]> var_1073_end_0 = const()[name = tensor<string, []>("op_1073_end_0"), val = tensor<int32, [1]>([33520])];
            tensor<bool, [1]> var_1073_end_mask_0 = const()[name = tensor<string, []>("op_1073_end_mask_0"), val = tensor<bool, [1]>([false])];
            tensor<fp32, [400]> var_1073 = slice_by_index(begin = var_1073_begin_0, end = var_1073_end_0, end_mask = var_1073_end_mask_0, x = var_21)[name = tensor<string, []>("op_1073")];
            tensor<int32, [1]> var_1078_begin_0 = const()[name = tensor<string, []>("op_1078_begin_0"), val = tensor<int32, [1]>([33280])];
            tensor<int32, [1]> var_1078_end_0 = const()[name = tensor<string, []>("op_1078_end_0"), val = tensor<int32, [1]>([33680])];
            tensor<bool, [1]> var_1078_end_mask_0 = const()[name = tensor<string, []>("op_1078_end_mask_0"), val = tensor<bool, [1]>([false])];
            tensor<fp32, [400]> var_1078 = slice_by_index(begin = var_1078_begin_0, end = var_1078_end_0, end_mask = var_1078_end_mask_0, x = var_21)[name = tensor<string, []>("op_1078")];
            tensor<int32, [1]> var_1083_begin_0 = const()[name = tensor<string, []>("op_1083_begin_0"), val = tensor<int32, [1]>([33440])];
            tensor<int32, [1]> var_1083_end_0 = const()[name = tensor<string, []>("op_1083_end_0"), val = tensor<int32, [1]>([33840])];
            tensor<bool, [1]> var_1083_end_mask_0 = const()[name = tensor<string, []>("op_1083_end_mask_0"), val = tensor<bool, [1]>([false])];
            tensor<fp32, [400]> var_1083 = slice_by_index(begin = var_1083_begin_0, end = var_1083_end_0, end_mask = var_1083_end_mask_0, x = var_21)[name = tensor<string, []>("op_1083")];
            tensor<int32, [1]> var_1088_begin_0 = const()[name = tensor<string, []>("op_1088_begin_0"), val = tensor<int32, [1]>([33600])];
            tensor<int32, [1]> var_1088_end_0 = const()[name = tensor<string, []>("op_1088_end_0"), val = tensor<int32, [1]>([34000])];
            tensor<bool, [1]> var_1088_end_mask_0 = const()[name = tensor<string, []>("op_1088_end_mask_0"), val = tensor<bool, [1]>([false])];
            tensor<fp32, [400]> var_1088 = slice_by_index(begin = var_1088_begin_0, end = var_1088_end_0, end_mask = var_1088_end_mask_0, x = var_21)[name = tensor<string, []>("op_1088")];
            tensor<int32, [1]> var_1093_begin_0 = const()[name = tensor<string, []>("op_1093_begin_0"), val = tensor<int32, [1]>([33760])];
            tensor<int32, [1]> var_1093_end_0 = const()[name = tensor<string, []>("op_1093_end_0"), val = tensor<int32, [1]>([34160])];
            tensor<bool, [1]> var_1093_end_mask_0 = const()[name = tensor<string, []>("op_1093_end_mask_0"), val = tensor<bool, [1]>([false])];
            tensor<fp32, [400]> var_1093 = slice_by_index(begin = var_1093_begin_0, end = var_1093_end_0, end_mask = var_1093_end_mask_0, x = var_21)[name = tensor<string, []>("op_1093")];
            tensor<int32, [1]> var_1098_begin_0 = const()[name = tensor<string, []>("op_1098_begin_0"), val = tensor<int32, [1]>([33920])];
            tensor<int32, [1]> var_1098_end_0 = const()[name = tensor<string, []>("op_1098_end_0"), val = tensor<int32, [1]>([34320])];
            tensor<bool, [1]> var_1098_end_mask_0 = const()[name = tensor<string, []>("op_1098_end_mask_0"), val = tensor<bool, [1]>([false])];
            tensor<fp32, [400]> var_1098 = slice_by_index(begin = var_1098_begin_0, end = var_1098_end_0, end_mask = var_1098_end_mask_0, x = var_21)[name = tensor<string, []>("op_1098")];
            tensor<int32, [1]> var_1103_begin_0 = const()[name = tensor<string, []>("op_1103_begin_0"), val = tensor<int32, [1]>([34080])];
            tensor<int32, [1]> var_1103_end_0 = const()[name = tensor<string, []>("op_1103_end_0"), val = tensor<int32, [1]>([34480])];
            tensor<bool, [1]> var_1103_end_mask_0 = const()[name = tensor<string, []>("op_1103_end_mask_0"), val = tensor<bool, [1]>([false])];
            tensor<fp32, [400]> var_1103 = slice_by_index(begin = var_1103_begin_0, end = var_1103_end_0, end_mask = var_1103_end_mask_0, x = var_21)[name = tensor<string, []>("op_1103")];
            tensor<int32, [1]> var_1108_begin_0 = const()[name = tensor<string, []>("op_1108_begin_0"), val = tensor<int32, [1]>([34240])];
            tensor<int32, [1]> var_1108_end_0 = const()[name = tensor<string, []>("op_1108_end_0"), val = tensor<int32, [1]>([34640])];
            tensor<bool, [1]> var_1108_end_mask_0 = const()[name = tensor<string, []>("op_1108_end_mask_0"), val = tensor<bool, [1]>([false])];
            tensor<fp32, [400]> var_1108 = slice_by_index(begin = var_1108_begin_0, end = var_1108_end_0, end_mask = var_1108_end_mask_0, x = var_21)[name = tensor<string, []>("op_1108")];
            tensor<int32, [1]> var_1113_begin_0 = const()[name = tensor<string, []>("op_1113_begin_0"), val = tensor<int32, [1]>([34400])];
            tensor<int32, [1]> var_1113_end_0 = const()[name = tensor<string, []>("op_1113_end_0"), val = tensor<int32, [1]>([34800])];
            tensor<bool, [1]> var_1113_end_mask_0 = const()[name = tensor<string, []>("op_1113_end_mask_0"), val = tensor<bool, [1]>([false])];
            tensor<fp32, [400]> var_1113 = slice_by_index(begin = var_1113_begin_0, end = var_1113_end_0, end_mask = var_1113_end_mask_0, x = var_21)[name = tensor<string, []>("op_1113")];
            tensor<int32, [1]> var_1118_begin_0 = const()[name = tensor<string, []>("op_1118_begin_0"), val = tensor<int32, [1]>([34560])];
            tensor<int32, [1]> var_1118_end_0 = const()[name = tensor<string, []>("op_1118_end_0"), val = tensor<int32, [1]>([34960])];
            tensor<bool, [1]> var_1118_end_mask_0 = const()[name = tensor<string, []>("op_1118_end_mask_0"), val = tensor<bool, [1]>([false])];
            tensor<fp32, [400]> var_1118 = slice_by_index(begin = var_1118_begin_0, end = var_1118_end_0, end_mask = var_1118_end_mask_0, x = var_21)[name = tensor<string, []>("op_1118")];
            tensor<int32, [1]> var_1123_begin_0 = const()[name = tensor<string, []>("op_1123_begin_0"), val = tensor<int32, [1]>([34720])];
            tensor<int32, [1]> var_1123_end_0 = const()[name = tensor<string, []>("op_1123_end_0"), val = tensor<int32, [1]>([35120])];
            tensor<bool, [1]> var_1123_end_mask_0 = const()[name = tensor<string, []>("op_1123_end_mask_0"), val = tensor<bool, [1]>([false])];
            tensor<fp32, [400]> var_1123 = slice_by_index(begin = var_1123_begin_0, end = var_1123_end_0, end_mask = var_1123_end_mask_0, x = var_21)[name = tensor<string, []>("op_1123")];
            tensor<int32, [1]> var_1128_begin_0 = const()[name = tensor<string, []>("op_1128_begin_0"), val = tensor<int32, [1]>([34880])];
            tensor<int32, [1]> var_1128_end_0 = const()[name = tensor<string, []>("op_1128_end_0"), val = tensor<int32, [1]>([35280])];
            tensor<bool, [1]> var_1128_end_mask_0 = const()[name = tensor<string, []>("op_1128_end_mask_0"), val = tensor<bool, [1]>([false])];
            tensor<fp32, [400]> var_1128 = slice_by_index(begin = var_1128_begin_0, end = var_1128_end_0, end_mask = var_1128_end_mask_0, x = var_21)[name = tensor<string, []>("op_1128")];
            tensor<int32, [1]> var_1133_begin_0 = const()[name = tensor<string, []>("op_1133_begin_0"), val = tensor<int32, [1]>([35040])];
            tensor<int32, [1]> var_1133_end_0 = const()[name = tensor<string, []>("op_1133_end_0"), val = tensor<int32, [1]>([35440])];
            tensor<bool, [1]> var_1133_end_mask_0 = const()[name = tensor<string, []>("op_1133_end_mask_0"), val = tensor<bool, [1]>([false])];
            tensor<fp32, [400]> var_1133 = slice_by_index(begin = var_1133_begin_0, end = var_1133_end_0, end_mask = var_1133_end_mask_0, x = var_21)[name = tensor<string, []>("op_1133")];
            tensor<int32, [1]> var_1138_begin_0 = const()[name = tensor<string, []>("op_1138_begin_0"), val = tensor<int32, [1]>([35200])];
            tensor<int32, [1]> var_1138_end_0 = const()[name = tensor<string, []>("op_1138_end_0"), val = tensor<int32, [1]>([35600])];
            tensor<bool, [1]> var_1138_end_mask_0 = const()[name = tensor<string, []>("op_1138_end_mask_0"), val = tensor<bool, [1]>([false])];
            tensor<fp32, [400]> var_1138 = slice_by_index(begin = var_1138_begin_0, end = var_1138_end_0, end_mask = var_1138_end_mask_0, x = var_21)[name = tensor<string, []>("op_1138")];
            tensor<int32, [1]> var_1143_begin_0 = const()[name = tensor<string, []>("op_1143_begin_0"), val = tensor<int32, [1]>([35360])];
            tensor<int32, [1]> var_1143_end_0 = const()[name = tensor<string, []>("op_1143_end_0"), val = tensor<int32, [1]>([35760])];
            tensor<bool, [1]> var_1143_end_mask_0 = const()[name = tensor<string, []>("op_1143_end_mask_0"), val = tensor<bool, [1]>([false])];
            tensor<fp32, [400]> var_1143 = slice_by_index(begin = var_1143_begin_0, end = var_1143_end_0, end_mask = var_1143_end_mask_0, x = var_21)[name = tensor<string, []>("op_1143")];
            tensor<int32, [1]> var_1148_begin_0 = const()[name = tensor<string, []>("op_1148_begin_0"), val = tensor<int32, [1]>([35520])];
            tensor<int32, [1]> var_1148_end_0 = const()[name = tensor<string, []>("op_1148_end_0"), val = tensor<int32, [1]>([35920])];
            tensor<bool, [1]> var_1148_end_mask_0 = const()[name = tensor<string, []>("op_1148_end_mask_0"), val = tensor<bool, [1]>([false])];
            tensor<fp32, [400]> var_1148 = slice_by_index(begin = var_1148_begin_0, end = var_1148_end_0, end_mask = var_1148_end_mask_0, x = var_21)[name = tensor<string, []>("op_1148")];
            tensor<int32, [1]> var_1153_begin_0 = const()[name = tensor<string, []>("op_1153_begin_0"), val = tensor<int32, [1]>([35680])];
            tensor<int32, [1]> var_1153_end_0 = const()[name = tensor<string, []>("op_1153_end_0"), val = tensor<int32, [1]>([36080])];
            tensor<bool, [1]> var_1153_end_mask_0 = const()[name = tensor<string, []>("op_1153_end_mask_0"), val = tensor<bool, [1]>([false])];
            tensor<fp32, [400]> var_1153 = slice_by_index(begin = var_1153_begin_0, end = var_1153_end_0, end_mask = var_1153_end_mask_0, x = var_21)[name = tensor<string, []>("op_1153")];
            tensor<int32, [1]> var_1158_begin_0 = const()[name = tensor<string, []>("op_1158_begin_0"), val = tensor<int32, [1]>([35840])];
            tensor<int32, [1]> var_1158_end_0 = const()[name = tensor<string, []>("op_1158_end_0"), val = tensor<int32, [1]>([36240])];
            tensor<bool, [1]> var_1158_end_mask_0 = const()[name = tensor<string, []>("op_1158_end_mask_0"), val = tensor<bool, [1]>([false])];
            tensor<fp32, [400]> var_1158 = slice_by_index(begin = var_1158_begin_0, end = var_1158_end_0, end_mask = var_1158_end_mask_0, x = var_21)[name = tensor<string, []>("op_1158")];
            tensor<int32, [1]> var_1163_begin_0 = const()[name = tensor<string, []>("op_1163_begin_0"), val = tensor<int32, [1]>([36000])];
            tensor<int32, [1]> var_1163_end_0 = const()[name = tensor<string, []>("op_1163_end_0"), val = tensor<int32, [1]>([36400])];
            tensor<bool, [1]> var_1163_end_mask_0 = const()[name = tensor<string, []>("op_1163_end_mask_0"), val = tensor<bool, [1]>([false])];
            tensor<fp32, [400]> var_1163 = slice_by_index(begin = var_1163_begin_0, end = var_1163_end_0, end_mask = var_1163_end_mask_0, x = var_21)[name = tensor<string, []>("op_1163")];
            tensor<int32, [1]> var_1168_begin_0 = const()[name = tensor<string, []>("op_1168_begin_0"), val = tensor<int32, [1]>([36160])];
            tensor<int32, [1]> var_1168_end_0 = const()[name = tensor<string, []>("op_1168_end_0"), val = tensor<int32, [1]>([36560])];
            tensor<bool, [1]> var_1168_end_mask_0 = const()[name = tensor<string, []>("op_1168_end_mask_0"), val = tensor<bool, [1]>([false])];
            tensor<fp32, [400]> var_1168 = slice_by_index(begin = var_1168_begin_0, end = var_1168_end_0, end_mask = var_1168_end_mask_0, x = var_21)[name = tensor<string, []>("op_1168")];
            tensor<int32, [1]> var_1173_begin_0 = const()[name = tensor<string, []>("op_1173_begin_0"), val = tensor<int32, [1]>([36320])];
            tensor<int32, [1]> var_1173_end_0 = const()[name = tensor<string, []>("op_1173_end_0"), val = tensor<int32, [1]>([36720])];
            tensor<bool, [1]> var_1173_end_mask_0 = const()[name = tensor<string, []>("op_1173_end_mask_0"), val = tensor<bool, [1]>([false])];
            tensor<fp32, [400]> var_1173 = slice_by_index(begin = var_1173_begin_0, end = var_1173_end_0, end_mask = var_1173_end_mask_0, x = var_21)[name = tensor<string, []>("op_1173")];
            tensor<int32, [1]> var_1178_begin_0 = const()[name = tensor<string, []>("op_1178_begin_0"), val = tensor<int32, [1]>([36480])];
            tensor<int32, [1]> var_1178_end_0 = const()[name = tensor<string, []>("op_1178_end_0"), val = tensor<int32, [1]>([36880])];
            tensor<bool, [1]> var_1178_end_mask_0 = const()[name = tensor<string, []>("op_1178_end_mask_0"), val = tensor<bool, [1]>([false])];
            tensor<fp32, [400]> var_1178 = slice_by_index(begin = var_1178_begin_0, end = var_1178_end_0, end_mask = var_1178_end_mask_0, x = var_21)[name = tensor<string, []>("op_1178")];
            tensor<int32, [1]> var_1183_begin_0 = const()[name = tensor<string, []>("op_1183_begin_0"), val = tensor<int32, [1]>([36640])];
            tensor<int32, [1]> var_1183_end_0 = const()[name = tensor<string, []>("op_1183_end_0"), val = tensor<int32, [1]>([37040])];
            tensor<bool, [1]> var_1183_end_mask_0 = const()[name = tensor<string, []>("op_1183_end_mask_0"), val = tensor<bool, [1]>([false])];
            tensor<fp32, [400]> var_1183 = slice_by_index(begin = var_1183_begin_0, end = var_1183_end_0, end_mask = var_1183_end_mask_0, x = var_21)[name = tensor<string, []>("op_1183")];
            tensor<int32, [1]> var_1188_begin_0 = const()[name = tensor<string, []>("op_1188_begin_0"), val = tensor<int32, [1]>([36800])];
            tensor<int32, [1]> var_1188_end_0 = const()[name = tensor<string, []>("op_1188_end_0"), val = tensor<int32, [1]>([37200])];
            tensor<bool, [1]> var_1188_end_mask_0 = const()[name = tensor<string, []>("op_1188_end_mask_0"), val = tensor<bool, [1]>([false])];
            tensor<fp32, [400]> var_1188 = slice_by_index(begin = var_1188_begin_0, end = var_1188_end_0, end_mask = var_1188_end_mask_0, x = var_21)[name = tensor<string, []>("op_1188")];
            tensor<int32, [1]> var_1193_begin_0 = const()[name = tensor<string, []>("op_1193_begin_0"), val = tensor<int32, [1]>([36960])];
            tensor<int32, [1]> var_1193_end_0 = const()[name = tensor<string, []>("op_1193_end_0"), val = tensor<int32, [1]>([37360])];
            tensor<bool, [1]> var_1193_end_mask_0 = const()[name = tensor<string, []>("op_1193_end_mask_0"), val = tensor<bool, [1]>([false])];
            tensor<fp32, [400]> var_1193 = slice_by_index(begin = var_1193_begin_0, end = var_1193_end_0, end_mask = var_1193_end_mask_0, x = var_21)[name = tensor<string, []>("op_1193")];
            tensor<int32, [1]> var_1198_begin_0 = const()[name = tensor<string, []>("op_1198_begin_0"), val = tensor<int32, [1]>([37120])];
            tensor<int32, [1]> var_1198_end_0 = const()[name = tensor<string, []>("op_1198_end_0"), val = tensor<int32, [1]>([37520])];
            tensor<bool, [1]> var_1198_end_mask_0 = const()[name = tensor<string, []>("op_1198_end_mask_0"), val = tensor<bool, [1]>([false])];
            tensor<fp32, [400]> var_1198 = slice_by_index(begin = var_1198_begin_0, end = var_1198_end_0, end_mask = var_1198_end_mask_0, x = var_21)[name = tensor<string, []>("op_1198")];
            tensor<int32, [1]> var_1203_begin_0 = const()[name = tensor<string, []>("op_1203_begin_0"), val = tensor<int32, [1]>([37280])];
            tensor<int32, [1]> var_1203_end_0 = const()[name = tensor<string, []>("op_1203_end_0"), val = tensor<int32, [1]>([37680])];
            tensor<bool, [1]> var_1203_end_mask_0 = const()[name = tensor<string, []>("op_1203_end_mask_0"), val = tensor<bool, [1]>([false])];
            tensor<fp32, [400]> var_1203 = slice_by_index(begin = var_1203_begin_0, end = var_1203_end_0, end_mask = var_1203_end_mask_0, x = var_21)[name = tensor<string, []>("op_1203")];
            tensor<int32, [1]> var_1208_begin_0 = const()[name = tensor<string, []>("op_1208_begin_0"), val = tensor<int32, [1]>([37440])];
            tensor<int32, [1]> var_1208_end_0 = const()[name = tensor<string, []>("op_1208_end_0"), val = tensor<int32, [1]>([37840])];
            tensor<bool, [1]> var_1208_end_mask_0 = const()[name = tensor<string, []>("op_1208_end_mask_0"), val = tensor<bool, [1]>([false])];
            tensor<fp32, [400]> var_1208 = slice_by_index(begin = var_1208_begin_0, end = var_1208_end_0, end_mask = var_1208_end_mask_0, x = var_21)[name = tensor<string, []>("op_1208")];
            tensor<int32, [1]> var_1213_begin_0 = const()[name = tensor<string, []>("op_1213_begin_0"), val = tensor<int32, [1]>([37600])];
            tensor<int32, [1]> var_1213_end_0 = const()[name = tensor<string, []>("op_1213_end_0"), val = tensor<int32, [1]>([38000])];
            tensor<bool, [1]> var_1213_end_mask_0 = const()[name = tensor<string, []>("op_1213_end_mask_0"), val = tensor<bool, [1]>([false])];
            tensor<fp32, [400]> var_1213 = slice_by_index(begin = var_1213_begin_0, end = var_1213_end_0, end_mask = var_1213_end_mask_0, x = var_21)[name = tensor<string, []>("op_1213")];
            tensor<int32, [1]> var_1218_begin_0 = const()[name = tensor<string, []>("op_1218_begin_0"), val = tensor<int32, [1]>([37760])];
            tensor<int32, [1]> var_1218_end_0 = const()[name = tensor<string, []>("op_1218_end_0"), val = tensor<int32, [1]>([38160])];
            tensor<bool, [1]> var_1218_end_mask_0 = const()[name = tensor<string, []>("op_1218_end_mask_0"), val = tensor<bool, [1]>([false])];
            tensor<fp32, [400]> var_1218 = slice_by_index(begin = var_1218_begin_0, end = var_1218_end_0, end_mask = var_1218_end_mask_0, x = var_21)[name = tensor<string, []>("op_1218")];
            tensor<int32, [1]> var_1223_begin_0 = const()[name = tensor<string, []>("op_1223_begin_0"), val = tensor<int32, [1]>([37920])];
            tensor<int32, [1]> var_1223_end_0 = const()[name = tensor<string, []>("op_1223_end_0"), val = tensor<int32, [1]>([38320])];
            tensor<bool, [1]> var_1223_end_mask_0 = const()[name = tensor<string, []>("op_1223_end_mask_0"), val = tensor<bool, [1]>([false])];
            tensor<fp32, [400]> var_1223 = slice_by_index(begin = var_1223_begin_0, end = var_1223_end_0, end_mask = var_1223_end_mask_0, x = var_21)[name = tensor<string, []>("op_1223")];
            tensor<int32, [1]> var_1228_begin_0 = const()[name = tensor<string, []>("op_1228_begin_0"), val = tensor<int32, [1]>([38080])];
            tensor<int32, [1]> var_1228_end_0 = const()[name = tensor<string, []>("op_1228_end_0"), val = tensor<int32, [1]>([38480])];
            tensor<bool, [1]> var_1228_end_mask_0 = const()[name = tensor<string, []>("op_1228_end_mask_0"), val = tensor<bool, [1]>([false])];
            tensor<fp32, [400]> var_1228 = slice_by_index(begin = var_1228_begin_0, end = var_1228_end_0, end_mask = var_1228_end_mask_0, x = var_21)[name = tensor<string, []>("op_1228")];
            tensor<int32, [1]> var_1233_begin_0 = const()[name = tensor<string, []>("op_1233_begin_0"), val = tensor<int32, [1]>([38240])];
            tensor<int32, [1]> var_1233_end_0 = const()[name = tensor<string, []>("op_1233_end_0"), val = tensor<int32, [1]>([38640])];
            tensor<bool, [1]> var_1233_end_mask_0 = const()[name = tensor<string, []>("op_1233_end_mask_0"), val = tensor<bool, [1]>([false])];
            tensor<fp32, [400]> var_1233 = slice_by_index(begin = var_1233_begin_0, end = var_1233_end_0, end_mask = var_1233_end_mask_0, x = var_21)[name = tensor<string, []>("op_1233")];
            tensor<int32, [1]> var_1238_begin_0 = const()[name = tensor<string, []>("op_1238_begin_0"), val = tensor<int32, [1]>([38400])];
            tensor<int32, [1]> var_1238_end_0 = const()[name = tensor<string, []>("op_1238_end_0"), val = tensor<int32, [1]>([38800])];
            tensor<bool, [1]> var_1238_end_mask_0 = const()[name = tensor<string, []>("op_1238_end_mask_0"), val = tensor<bool, [1]>([false])];
            tensor<fp32, [400]> var_1238 = slice_by_index(begin = var_1238_begin_0, end = var_1238_end_0, end_mask = var_1238_end_mask_0, x = var_21)[name = tensor<string, []>("op_1238")];
            tensor<int32, [1]> var_1243_begin_0 = const()[name = tensor<string, []>("op_1243_begin_0"), val = tensor<int32, [1]>([38560])];
            tensor<int32, [1]> var_1243_end_0 = const()[name = tensor<string, []>("op_1243_end_0"), val = tensor<int32, [1]>([38960])];
            tensor<bool, [1]> var_1243_end_mask_0 = const()[name = tensor<string, []>("op_1243_end_mask_0"), val = tensor<bool, [1]>([false])];
            tensor<fp32, [400]> var_1243 = slice_by_index(begin = var_1243_begin_0, end = var_1243_end_0, end_mask = var_1243_end_mask_0, x = var_21)[name = tensor<string, []>("op_1243")];
            tensor<int32, [1]> var_1248_begin_0 = const()[name = tensor<string, []>("op_1248_begin_0"), val = tensor<int32, [1]>([38720])];
            tensor<int32, [1]> var_1248_end_0 = const()[name = tensor<string, []>("op_1248_end_0"), val = tensor<int32, [1]>([39120])];
            tensor<bool, [1]> var_1248_end_mask_0 = const()[name = tensor<string, []>("op_1248_end_mask_0"), val = tensor<bool, [1]>([false])];
            tensor<fp32, [400]> var_1248 = slice_by_index(begin = var_1248_begin_0, end = var_1248_end_0, end_mask = var_1248_end_mask_0, x = var_21)[name = tensor<string, []>("op_1248")];
            tensor<int32, [1]> var_1253_begin_0 = const()[name = tensor<string, []>("op_1253_begin_0"), val = tensor<int32, [1]>([38880])];
            tensor<int32, [1]> var_1253_end_0 = const()[name = tensor<string, []>("op_1253_end_0"), val = tensor<int32, [1]>([39280])];
            tensor<bool, [1]> var_1253_end_mask_0 = const()[name = tensor<string, []>("op_1253_end_mask_0"), val = tensor<bool, [1]>([false])];
            tensor<fp32, [400]> var_1253 = slice_by_index(begin = var_1253_begin_0, end = var_1253_end_0, end_mask = var_1253_end_mask_0, x = var_21)[name = tensor<string, []>("op_1253")];
            tensor<int32, [1]> var_1258_begin_0 = const()[name = tensor<string, []>("op_1258_begin_0"), val = tensor<int32, [1]>([39040])];
            tensor<int32, [1]> var_1258_end_0 = const()[name = tensor<string, []>("op_1258_end_0"), val = tensor<int32, [1]>([39440])];
            tensor<bool, [1]> var_1258_end_mask_0 = const()[name = tensor<string, []>("op_1258_end_mask_0"), val = tensor<bool, [1]>([false])];
            tensor<fp32, [400]> var_1258 = slice_by_index(begin = var_1258_begin_0, end = var_1258_end_0, end_mask = var_1258_end_mask_0, x = var_21)[name = tensor<string, []>("op_1258")];
            tensor<int32, [1]> var_1263_begin_0 = const()[name = tensor<string, []>("op_1263_begin_0"), val = tensor<int32, [1]>([39200])];
            tensor<int32, [1]> var_1263_end_0 = const()[name = tensor<string, []>("op_1263_end_0"), val = tensor<int32, [1]>([39600])];
            tensor<bool, [1]> var_1263_end_mask_0 = const()[name = tensor<string, []>("op_1263_end_mask_0"), val = tensor<bool, [1]>([false])];
            tensor<fp32, [400]> var_1263 = slice_by_index(begin = var_1263_begin_0, end = var_1263_end_0, end_mask = var_1263_end_mask_0, x = var_21)[name = tensor<string, []>("op_1263")];
…
            tensor<fp32, [64]> const_39 = const()[name = tensor<string, []>("const_39"), val = tensor<fp32, [64]>(BLOBFILE(path = tensor<string, []>("@model_path/weights/weight.bin"), offset = tensor<uint64, []>(8027904)))];
            tensor<fp32, [1, 64, 40, 499]> input_67 = conv(bias = const_39, dilations = input_65_dilations_0, groups = input_65_groups_0, pad = input_65_pad_0, pad_type = input_65_pad_type_0, strides = input_65_strides_0, weight = const_38, x = input_63)[name = tensor<string, []>("input_67")];
            tensor<fp32, [1, 64, 40, 499]> input_69 = relu(x = input_67)[name = tensor<string, []>("input_69")];
            tensor<string, []> input_71_pad_type_0 = const()[name = tensor<string, []>("input_71_pad_type_0"), val = tensor<string, []>("custom")];
            tensor<int32, [4]> input_71_pad_0 = const()[name = tensor<string, []>("input_71_pad_0"), val = tensor<int32, [4]>([1, 1, 1, 1])];
            tensor<int32, [2]> input_71_strides_0 = const()[name = tensor<string, []>("input_71_strides_0"), val = tensor<int32, [2]>([1, 1])];
            tensor<int32, [2]> input_71_dilations_0 = const()[name = tensor<string, []>("input_71_dilations_0"), val = tensor<int32, [2]>([1, 1])];
            tensor<int32, []> input_71_groups_0 = const()[name = tensor<string, []>("input_71_groups_0"), val = tensor<int32, []>(1)];
            tensor<fp32, [64, 64, 3, 3]> const_40 = const()[name = tensor<string, []>("const_40"), val = tensor<fp32, [64, 64, 3, 3]>(BLOBFILE(path = tensor<string, []>("@model_path/weights/weight.bin"), offset = tensor<uint64, []>(8028224)))];
            tensor<fp32, [64]> const_41 = const()[name = tensor<string, []>("const_41"), val = tensor<fp32, [64]>(BLOBFILE(path = tensor<string, []>("@model_path/weights/weight.bin"), offset = tensor<uint64, []>(8175744)))];
            tensor<fp32, [1, 64, 40, 499]> out_9 = conv(bias = const_41, dilations = input_71_dilations_0, groups = input_71_groups_0, pad = input_71_pad_0, pad_type = input_71_pad_type_0, strides = input_71_strides_0, weight = const_40, x = input_69)[name = tensor<string, []>("out_9")];
            tensor<fp32, [1, 64, 40, 499]> input_73 = add(x = out_9, y = input_63)[name = tensor<string, []>("input_73")];
            tensor<fp32, [1, 64, 40, 499]> input_75 = relu(x = input_73)[name = tensor<string, []>("input_75")];
            tensor<string, []> input_77_pad_type_0 = const()[name = tensor<string, []>("input_77_pad_type_0"), val = tensor<string, []>("custom")];
            tensor<int32, [4]> input_77_pad_0 = const()[name = tensor<string, []>("input_77_pad_0"), val = tensor<int32, [4]>([1, 1, 1, 1])];
            tensor<int32, [2]> input_77_strides_0 = const()[name = tensor<string, []>("input_77_strides_0"), val = tensor<int32, [2]>([1, 1])];
            tensor<int32, [2]> input_77_dilations_0 = const()[name = tensor<string, []>("input_77_dilations_0"), val = tensor<int32, [2]>([1, 1])];
            tensor<int32, []> input_77_groups_0 = const()[name = tensor<string, []>("input_77_groups_0"), val = tensor<int32, []>(1)];
            tensor<fp32, [64, 64, 3, 3]> const_42 = const()[name = tensor<string, []>("const_42"), val = tensor<fp32, [64, 64, 3, 3]>(BLOBFILE(path = tensor<string, []>("@model_path/weights/weight.bin"), offset = tensor<uint64, []>(8176064)))];
            tensor<fp32, [64]> const_43 = const()[name = tensor<string, []>("const_43"), val = tensor<fp32, [64]>(BLOBFILE(path = tensor<string, []>("@model_path/weights/weight.bin"), offset = tensor<uint64, []>(8323584)))];
            tensor<fp32, [1, 64, 40, 499]> input_79 = conv(bias = const_43, dilations = input_77_dilations_0, groups = input_77_groups_0, pad = input_77_pad_0, pad_type = input_77_pad_type_0, strides = input_77_strides_0, weight = const_42, x = input_75)[name = tensor<string, []>("input_79")];
            tensor<fp32, [1, 64, 40, 499]> input_81 = relu(x = input_79)[name = tensor<string, []>("input_81")];
            tensor<string, []> input_83_pad_type_0 = const()[name = tensor<string, []>("input_83_pad_type_0"), val = tensor<string, []>("custom")];
            tensor<int32, [4]> input_83_pad_0 = const()[name = tensor<string, []>("input_83_pad_0"), val = tensor<int32, [4]>([1, 1, 1, 1])];
            tensor<int32, [2]> input_83_strides_0 = const()[name = tensor<string, []>("input_83_strides_0"), val = tensor<int32, [2]>([1, 1])];
            tensor<int32, [2]> input_83_dilations_0 = const()[name = tensor<string, []>("input_83_dilations_0"), val = tensor<int32, [2]>([1, 1])];
            tensor<int32, []> input_83_groups_0 = const()[name = tensor<string, []>("input_83_groups_0"), val = tensor<int32, []>(1)];
            tensor<fp32, [64, 64, 3, 3]> const_44 = const()[name = tensor<string, []>("const_44"), val = tensor<fp32, [64, 64, 3, 3]>(BLOBFILE(path = tensor<string, []>("@model_path/weights/weight.bin"), offset = tensor<uint64, []>(8323904)))];
            tensor<fp32, [64]> const_45 = const()[name = tensor<string, []>("const_45"), val = tensor<fp32, [64]>(BLOBFILE(path = tensor<string, []>("@model_path/weights/weight.bin"), offset = tensor<uint64, []>(8471424)))];
            tensor<fp32, [1, 64, 40, 499]> out_11 = conv(bias = const_45, dilations = input_83_dilations_0, groups = input_83_groups_0, pad = input_83_pad_0, pad_type = input_83_pad_type_0, strides = input_83_strides_0, weight = const_44, x = input_81)[name = tensor<string, []>("out_11")];
            tensor<fp32, [1, 64, 40, 499]> input_85 = add(x = out_11, y = input_75)[name = tensor<string, []>("input_85")];
            tensor<fp32, [1, 64, 40, 499]> input_87 = relu(x = input_85)[name = tensor<string, []>("input_87")];
            tensor<string, []> input_89_pad_type_0 = const()[name = tensor<string, []>("input_89_pad_type_0"), val = tensor<string, []>("custom")];
            tensor<int32, [4]> input_89_pad_0 = const()[name = tensor<string, []>("input_89_pad_0"), val = tensor<int32, [4]>([1, 1, 1, 1])];
            tensor<int32, [2]> input_89_strides_0 = const()[name = tensor<string, []>("input_89_strides_0"), val = tensor<int32, [2]>([1, 1])];
            tensor<int32, [2]> input_89_dilations_0 = const()[name = tensor<string, []>("input_89_dilations_0"), val = tensor<int32, [2]>([1, 1])];
            tensor<int32, []> input_89_groups_0 = const()[name = tensor<string, []>("input_89_groups_0"), val = tensor<int32, []>(1)];
            tensor<fp32, [64, 64, 3, 3]> const_46 = const()[name = tensor<string, []>("const_46"), val = tensor<fp32, [64, 64, 3, 3]>(BLOBFILE(path = tensor<string, []>("@model_path/weights/weight.bin"), offset = tensor<uint64, []>(8471744)))];
            tensor<fp32, [64]> const_47 = const()[name = tensor<string, []>("const_47"), val = tensor<fp32, [64]>(BLOBFILE(path = tensor<string, []>("@model_path/weights/weight.bin"), offset = tensor<uint64, []>(8619264)))];
            tensor<fp32, [1, 64, 40, 499]> input_91 = conv(bias = const_47, dilations = input_89_dilations_0, groups = input_89_groups_0, pad = input_89_pad_0, pad_type = input_89_pad_type_0, strides = input_89_strides_0, weight = const_46, x = input_87)[name = tensor<string, []>("input_91")];
            tensor<fp32, [1, 64, 40, 499]> input_93 = relu(x = input_91)[name = tensor<string, []>("input_93")];
            tensor<string, []> input_95_pad_type_0 = const()[name = tensor<string, []>("input_95_pad_type_0"), val = tensor<string, []>("custom")];
            tensor<int32, [4]> input_95_pad_0 = const()[name = tensor<string, []>("input_95_pad_0"), val = tensor<int32, [4]>([1, 1, 1, 1])];
            tensor<int32, [2]> input_95_strides_0 = const()[name = tensor<string, []>("input_95_strides_0"), val = tensor<int32, [2]>([1, 1])];
            tensor<int32, [2]> input_95_dilations_0 = const()[name = tensor<string, []>("input_95_dilations_0"), val = tensor<int32, [2]>([1, 1])];
            tensor<int32, []> input_95_groups_0 = const()[name = tensor<string, []>("input_95_groups_0"), val = tensor<int32, []>(1)];
            tensor<fp32, [64, 64, 3, 3]> const_48 = const()[name = tensor<string, []>("const_48"), val = tensor<fp32, [64, 64, 3, 3]>(BLOBFILE(path = tensor<string, []>("@model_path/weights/weight.bin"), offset = tensor<uint64, []>(8619584)))];
            tensor<fp32, [64]> const_49 = const()[name = tensor<string, []>("const_49"), val = tensor<fp32, [64]>(BLOBFILE(path = tensor<string, []>("@model_path/weights/weight.bin"), offset = tensor<uint64, []>(8767104)))];
            tensor<fp32, [1, 64, 40, 499]> out_13 = conv(bias = const_49, dilations = input_95_dilations_0, groups = input_95_groups_0, pad = input_95_pad_0, pad_type = input_95_pad_type_0, strides = input_95_strides_0, weight = const_48, x = input_93)[name = tensor<string, []>("out_13")];
            tensor<fp32, [1, 64, 40, 499]> input_97 = add(x = out_13, y = input_87)[name = tensor<string, []>("input_97")];
            tensor<fp32, [1, 64, 40, 499]> input_99 = relu(x = input_97)[name = tensor<string, []>("input_99")];
            tensor<string, []> input_101_pad_type_0 = const()[name = tensor<string, []>("input_101_pad_type_0"), val = tensor<string, []>("custom")];
            tensor<int32, [4]> input_101_pad_0 = const()[name = tensor<string, []>("input_101_pad_0"), val = tensor<int32, [4]>([1, 1, 1, 1])];
            tensor<int32, [2]> input_101_strides_0 = const()[name = tensor<string, []>("input_101_strides_0"), val = tensor<int32, [2]>([2, 2])];
            tensor<int32, [2]> input_101_dilations_0 = const()[name = tensor<string, []>("input_101_dilations_0"), val = tensor<int32, [2]>([1, 1])];
            tensor<int32, []> input_101_groups_0 = const()[name = tensor<string, []>("input_101_groups_0"), val = tensor<int32, []>(1)];
            tensor<fp32, [128, 64, 3, 3]> const_50 = const()[name = tensor<string, []>("const_50"), val = tensor<fp32, [128, 64, 3, 3]>(BLOBFILE(path = tensor<string, []>("@model_path/weights/weight.bin"), offset = tensor<uint64, []>(8767424)))];
            tensor<fp32, [128]> const_51 = const()[name = tensor<string, []>("const_51"), val = tensor<fp32, [128]>(BLOBFILE(path = tensor<string, []>("@model_path/weights/weight.bin"), offset = tensor<uint64, []>(9062400)))];
            tensor<fp32, [1, 128, 20, 250]> input_103 = conv(bias = const_51, dilations = input_101_dilations_0, groups = input_101_groups_0, pad = input_101_pad_0, pad_type = input_101_pad_type_0, strides = input_101_strides_0, weight = const_50, x = input_99)[name = tensor<string, []>("input_103")];
            tensor<fp32, [1, 128, 20, 250]> input_105 = relu(x = input_103)[name = tensor<string, []>("input_105")];
            tensor<string, []> input_107_pad_type_0 = const()[name = tensor<string, []>("input_107_pad_type_0"), val = tensor<string, []>("custom")];
            tensor<int32, [4]> input_107_pad_0 = const()[name = tensor<string, []>("input_107_pad_0"), val = tensor<int32, [4]>([1, 1, 1, 1])];
            tensor<int32, [2]> input_107_strides_0 = const()[name = tensor<string, []>("input_107_strides_0"), val = tensor<int32, [2]>([1, 1])];
            tensor<int32, [2]> input_107_dilations_0 = const()[name = tensor<string, []>("input_107_dilations_0"), val = tensor<int32, [2]>([1, 1])];
            tensor<int32, []> input_107_groups_0 = const()[name = tensor<string, []>("input_107_groups_0"), val = tensor<int32, []>(1)];
            tensor<fp32, [128, 128, 3, 3]> const_52 = const()[name = tensor<string, []>("const_52"), val = tensor<fp32, [128, 128, 3, 3]>(BLOBFILE(path = tensor<string, []>("@model_path/weights/weight.bin"), offset = tensor<uint64, []>(9062976)))];
            tensor<fp32, [128]> const_53 = const()[name = tensor<string, []>("const_53"), val = tensor<fp32, [128]>(BLOBFILE(path = tensor<string, []>("@model_path/weights/weight.bin"), offset = tensor<uint64, []>(9652864)))];
            tensor<fp32, [1, 128, 20, 250]> out_15 = conv(bias = const_53, dilations = input_107_dilations_0, groups = input_107_groups_0, pad = input_107_pad_0, pad_type = input_107_pad_type_0, strides = input_107_strides_0, weight = const_52, x = input_105)[name = tensor<string, []>("out_15")];
            tensor<string, []> input_109_pad_type_0 = const()[name = tensor<string, []>("input_109_pad_type_0"), val = tensor<string, []>("valid")];
            tensor<int32, [2]> input_109_strides_0 = const()[name = tensor<string, []>("input_109_strides_0"), val = tensor<int32, [2]>([2, 2])];
            tensor<int32, [4]> input_109_pad_0 = const()[name = tensor<string, []>("input_109_pad_0"), val = tensor<int32, [4]>([0, 0, 0, 0])];
            tensor<int32, [2]> input_109_dilations_0 = const()[name = tensor<string, []>("input_109_dilations_0"), val = tensor<int32, [2]>([1, 1])];
            tensor<int32, []> input_109_groups_0 = const()[name = tensor<string, []>("input_109_groups_0"), val = tensor<int32, []>(1)];
            tensor<fp32, [128, 64, 1, 1]> const_54 = const()[name = tensor<string, []>("const_54"), val = tensor<fp32, [128, 64, 1, 1]>(BLOBFILE(path = tensor<string, []>("@model_path/weights/weight.bin"), offset = tensor<uint64, []>(9653440)))];
            tensor<fp32, [128]> const_55 = const()[name = tensor<string, []>("const_55"), val = tensor<fp32, [128]>(BLOBFILE(path = tensor<string, []>("@model_path/weights/weight.bin"), offset = tensor<uint64, []>(9686272)))];
            tensor<fp32, [1, 128, 20, 250]> var_5508 = conv(bias = const_55, dilations = input_109_dilations_0, groups = input_109_groups_0, pad = input_109_pad_0, pad_type = input_109_pad_type_0, strides = input_109_strides_0, weight = const_54, x = input_99)[name = tensor<string, []>("op_5508")];
            tensor<fp32, [1, 128, 20, 250]> input_111 = add(x = out_15, y = var_5508)[name = tensor<string, []>("input_111")];
            tensor<fp32, [1, 128, 20, 250]> input_113 = relu(x = input_111)[name = tensor<string, []>("input_113")];
            tensor<string, []> input_115_pad_type_0 = const()[name = tensor<string, []>("input_115_pad_type_0"), val = tensor<string, []>("custom")];
            tensor<int32, [4]> input_115_pad_0 = const()[name = tensor<string, []>("input_115_pad_0"), val = tensor<int32, [4]>([1, 1, 1, 1])];
            tensor<int32, [2]> input_115_strides_0 = const()[name = tensor<string, []>("input_115_strides_0"), val = tensor<int32, [2]>([1, 1])];
            tensor<int32, [2]> input_115_dilations_0 = const()[name = tensor<string, []>("input_115_dilations_0"), val = tensor<int32, [2]>([1, 1])];
            tensor<int32, []> input_115_groups_0 = const()[name = tensor<string, []>("input_115_groups_0"), val = tensor<int32, []>(1)];
            tensor<fp32, [128, 128, 3, 3]> const_56 = const()[name = tensor<string, []>("const_56"), val = tensor<fp32, [128, 128, 3, 3]>(BLOBFILE(path = tensor<string, []>("@model_path/weights/weight.bin"), offset = tensor<uint64, []>(9686848)))];
            tensor<fp32, [128]> const_57 = const()[name = tensor<string, []>("const_57"), val = tensor<fp32, [128]>(BLOBFILE(path = tensor<string, []>("@model_path/weights/weight.bin"), offset = tensor<uint64, []>(10276736)))];
            tensor<fp32, [1, 128, 20, 250]> input_117 = conv(bias = const_57, dilations = input_115_dilations_0, groups = input_115_groups_0, pad = input_115_pad_0, pad_type = input_115_pad_type_0, strides = input_115_strides_0, weight = const_56, x = input_113)[name = tensor<string, []>("input_117")];
            tensor<fp32, [1, 128, 20, 250]> input_119 = relu(x = input_117)[name = tensor<string, []>("input_119")];
            tensor<string, []> input_121_pad_type_0 = const()[name = tensor<string, []>("input_121_pad_type_0"), val = tensor<string, []>("custom")];
            tensor<int32, [4]> input_121_pad_0 = const()[name = tensor<string, []>("input_121_pad_0"), val = tensor<int32, [4]>([1, 1, 1, 1])];
            tensor<int32, [2]> input_121_strides_0 = const()[name = tensor<string, []>("input_121_strides_0"), val = tensor<int32, [2]>([1, 1])];
            tensor<int32, [2]> input_121_dilations_0 = const()[name = tensor<string, []>("input_121_dilations_0"), val = tensor<int32, [2]>([1, 1])];
            tensor<int32, []> input_121_groups_0 = const()[name = tensor<string, []>("input_121_groups_0"), val = tensor<int32, []>(1)];
            tensor<fp32, [128, 128, 3, 3]> const_58 = const()[name = tensor<string, []>("const_58"), val = tensor<fp32, [128, 128, 3, 3]>(BLOBFILE(path = tensor<string, []>("@model_path/weights/weight.bin"), offset = tensor<uint64, []>(10277312)))];
            tensor<fp32, [128]> const_59 = const()[name = tensor<string, []>("const_59"), val = tensor<fp32, [128]>(BLOBFILE(path = tensor<string, []>("@model_path/weights/weight.bin"), offset = tensor<uint64, []>(10867200)))];
            tensor<fp32, [1, 128, 20, 250]> out_17 = conv(bias = const_59, dilations = input_121_dilations_0, groups = input_121_groups_0, pad = input_121_pad_0, pad_type = input_121_pad_type_0, strides = input_121_strides_0, weight = const_58, x = input_119)[name = tensor<string, []>("out_17")];
            tensor<fp32, [1, 128, 20, 250]> input_123 = add(x = out_17, y = input_113)[name = tensor<string, []>("input_123")];
            tensor<fp32, [1, 128, 20, 250]> input_125 = relu(x = input_123)[name = tensor<string, []>("input_125")];
            tensor<string, []> input_127_pad_type_0 = const()[name = tensor<string, []>("input_127_pad_type_0"), val = tensor<string, []>("custom")];
            tensor<int32, [4]> input_127_pad_0 = const()[name = tensor<string, []>("input_127_pad_0"), val = tensor<int32, [4]>([1, 1, 1, 1])];
            tensor<int32, [2]> input_127_strides_0 = const()[name = tensor<string, []>("input_127_strides_0"), val = tensor<int32, [2]>([1, 1])];
            tensor<int32, [2]> input_127_dilations_0 = const()[name = tensor<string, []>("input_127_dilations_0"), val = tensor<int32, [2]>([1, 1])];
            tensor<int32, []> input_127_groups_0 = const()[name = tensor<string, []>("input_127_groups_0"), val = tensor<int32, []>(1)];
            tensor<fp32, [128, 128, 3, 3]> const_60 = const()[name = tensor<string, []>("const_60"), val = tensor<fp32, [128, 128, 3, 3]>(BLOBFILE(path = tensor<string, []>("@model_path/weights/weight.bin"), offset = tensor<uint64, []>(10867776)))];
            tensor<fp32, [128]> const_61 = const()[name = tensor<string, []>("const_61"), val = tensor<fp32, [128]>(BLOBFILE(path = tensor<string, []>("@model_path/weights/weight.bin"), offset = tensor<uint64, []>(11457664)))];
            tensor<fp32, [1, 128, 20, 250]> input_129 = conv(bias = const_61, dilations = input_127_dilations_0, groups = input_127_groups_0, pad = input_127_pad_0, pad_type = input_127_pad_type_0, strides = input_127_strides_0, weight = const_60, x = input_125)[name = tensor<string, []>("input_129")];
            tensor<fp32, [1, 128, 20, 250]> input_131 = relu(x = input_129)[name = tensor<string, []>("input_131")];
            tensor<string, []> input_133_pad_type_0 = const()[name = tensor<string, []>("input_133_pad_type_0"), val = tensor<string, []>("custom")];
            tensor<int32, [4]> input_133_pad_0 = const()[name = tensor<string, []>("input_133_pad_0"), val = tensor<int32, [4]>([1, 1, 1, 1])];
            tensor<int32, [2]> input_133_strides_0 = const()[name = tensor<string, []>("input_133_strides_0"), val = tensor<int32, [2]>([1, 1])];
            tensor<int32, [2]> input_133_dilations_0 = const()[name = tensor<string, []>("input_133_dilations_0"), val = tensor<int32, [2]>([1, 1])];
            tensor<int32, []> input_133_groups_0 = const()[name = tensor<string, []>("input_133_groups_0"), val = tensor<int32, []>(1)];
            tensor<fp32, [128, 128, 3, 3]> const_62 = const()[name = tensor<string, []>("const_62"), val = tensor<fp32, [128, 128, 3, 3]>(BLOBFILE(path = tensor<string, []>("@model_path/weights/weight.bin"), offset = tensor<uint64, []>(11458240)))];
            tensor<fp32, [128]> const_63 = const()[name = tensor<string, []>("const_63"), val = tensor<fp32, [128]>(BLOBFILE(path = tensor<string, []>("@model_path/weights/weight.bin"), offset = tensor<uint64, []>(12048128)))];
            tensor<fp32, [1, 128, 20, 250]> out_19 = conv(bias = const_63, dilations = input_133_dilations_0, groups = input_133_groups_0, pad = input_133_pad_0, pad_type = input_133_pad_type_0, strides = input_133_strides_0, weight = const_62, x = input_131)[name = tensor<string, []>("out_19")];
            tensor<fp32, [1, 128, 20, 250]> input_135 = add(x = out_19, y = input_125)[name = tensor<string, []>("input_135")];
            tensor<fp32, [1, 128, 20, 250]> input_137 = relu(x = input_135)[name = tensor<string, []>("input_137")];
            tensor<string, []> input_139_pad_type_0 = const()[name = tensor<string, []>("input_139_pad_type_0"), val = tensor<string, []>("custom")];
            tensor<int32, [4]> input_139_pad_0 = const()[name = tensor<string, []>("input_139_pad_0"), val = tensor<int32, [4]>([1, 1, 1, 1])];
            tensor<int32, [2]> input_139_strides_0 = const()[name = tensor<string, []>("input_139_strides_0"), val = tensor<int32, [2]>([1, 1])];
            tensor<int32, [2]> input_139_dilations_0 = const()[name = tensor<string, []>("input_139_dilations_0"), val = tensor<int32, [2]>([1, 1])];
            tensor<int32, []> input_139_groups_0 = const()[name = tensor<string, []>("input_139_groups_0"), val = tensor<int32, []>(1)];
            tensor<fp32, [128, 128, 3, 3]> const_64 = const()[name = tensor<string, []>("const_64"), val = tensor<fp32, [128, 128, 3, 3]>(BLOBFILE(path = tensor<string, []>("@model_path/weights/weight.bin"), offset = tensor<uint64, []>(12048704)))];
            tensor<fp32, [128]> const_65 = const()[name = tensor<string, []>("const_65"), val = tensor<fp32, [128]>(BLOBFILE(path = tensor<string, []>("@model_path/weights/weight.bin"), offset = tensor<uint64, []>(12638592)))];
            tensor<fp32, [1, 128, 20, 250]> input_141 = conv(bias = const_65, dilations = input_139_dilations_0, groups = input_139_groups_0, pad = input_139_pad_0, pad_type = input_139_pad_type_0, strides = input_139_strides_0, weight = const_64, x = input_137)[name = tensor<string, []>("input_141")];
            tensor<fp32, [1, 128, 20, 250]> input_143 = relu(x = input_141)[name = tensor<string, []>("input_143")];
            tensor<string, []> input_145_pad_type_0 = const()[name = tensor<string, []>("input_145_pad_type_0"), val = tensor<string, []>("custom")];
            tensor<int32, [4]> input_145_pad_0 = const()[name = tensor<string, []>("input_145_pad_0"), val = tensor<int32, [4]>([1, 1, 1, 1])];
            tensor<int32, [2]> input_145_strides_0 = const()[name = tensor<string, []>("input_145_strides_0"), val = tensor<int32, [2]>([1, 1])];
            tensor<int32, [2]> input_145_dilations_0 = const()[name = tensor<string, []>("input_145_dilations_0"), val = tensor<int32, [2]>([1, 1])];
            tensor<int32, []> input_145_groups_0 = const()[name = tensor<string, []>("input_145_groups_0"), val = tensor<int32, []>(1)];
            tensor<fp32, [128, 128, 3, 3]> const_66 = const()[name = tensor<string, []>("const_66"), val = tensor<fp32, [128, 128, 3, 3]>(BLOBFILE(path = tensor<string, []>("@model_path/weights/weight.bin"), offset = tensor<uint64, []>(12639168)))];
            tensor<fp32, [128]> const_67 = const()[name = tensor<string, []>("const_67"), val = tensor<fp32, [128]>(BLOBFILE(path = tensor<string, []>("@model_path/weights/weight.bin"), offset = tensor<uint64, []>(13229056)))];
            tensor<fp32, [1, 128, 20, 250]> out_21 = conv(bias = const_67, dilations = input_145_dilations_0, groups = input_145_groups_0, pad = input_145_pad_0, pad_type = input_145_pad_type_0, strides = input_145_strides_0, weight = const_66, x = input_143)[name = tensor<string, []>("out_21")];
            tensor<fp32, [1, 128, 20, 250]> input_147 = add(x = out_21, y = input_137)[name = tensor<string, []>("input_147")];
            tensor<fp32, [1, 128, 20, 250]> input_149 = relu(x = input_147)[name = tensor<string, []>("input_149")];
            tensor<string, []> input_151_pad_type_0 = const()[name = tensor<string, []>("input_151_pad_type_0"), val = tensor<string, []>("custom")];
            tensor<int32, [4]> input_151_pad_0 = const()[name = tensor<string, []>("input_151_pad_0"), val = tensor<int32, [4]>([1, 1, 1, 1])];
            tensor<int32, [2]> input_151_strides_0 = const()[name = tensor<string, []>("input_151_strides_0"), val = tensor<int32, [2]>([1, 1])];
            tensor<int32, [2]> input_151_dilations_0 = const()[name = tensor<string, []>("input_151_dilations_0"), val = tensor<int32, [2]>([1, 1])];
            tensor<int32, []> input_151_groups_0 = const()[name = tensor<string, []>("input_151_groups_0"), val = tensor<int32, []>(1)];
            tensor<fp32, [128, 128, 3, 3]> const_68 = const()[name = tensor<string, []>("const_68"), val = tensor<fp32, [128, 128, 3, 3]>(BLOBFILE(path = tensor<string, []>("@model_path/weights/weight.bin"), offset = tensor<uint64, []>(13229632)))];
            tensor<fp32, [128]> const_69 = const()[name = tensor<string, []>("const_69"), val = tensor<fp32, [128]>(BLOBFILE(path = tensor<string, []>("@model_path/weights/weight.bin"), offset = tensor<uint64, []>(13819520)))];
            tensor<fp32, [1, 128, 20, 250]> input_153 = conv(bias = const_69, dilations = input_151_dilations_0, groups = input_151_groups_0, pad = input_151_pad_0, pad_type = input_151_pad_type_0, strides = input_151_strides_0, weight = const_68, x = input_149)[name = tensor<string, []>("input_153")];
            tensor<fp32, [1, 128, 20, 250]> input_155 = relu(x = input_153)[name = tensor<string, []>("input_155")];
            tensor<string, []> input_157_pad_type_0 = const()[name = tensor<string, []>("input_157_pad_type_0"), val = tensor<string, []>("custom")];
            tensor<int32, [4]> input_157_pad_0 = const()[name = tensor<string, []>("input_157_pad_0"), val = tensor<int32, [4]>([1, 1, 1, 1])];
            tensor<int32, [2]> input_157_strides_0 = const()[name = tensor<string, []>("input_157_strides_0"), val = tensor<int32, [2]>([1, 1])];
            tensor<int32, [2]> input_157_dilations_0 = const()[name = tensor<string, []>("input_157_dilations_0"), val = tensor<int32, [2]>([1, 1])];
            tensor<int32, []> input_157_groups_0 = const()[name = tensor<string, []>("input_157_groups_0"), val = tensor<int32, []>(1)];
            tensor<fp32, [128, 128, 3, 3]> const_70 = const()[name = tensor<string, []>("const_70"), val = tensor<fp32, [128, 128, 3, 3]>(BLOBFILE(path = tensor<string, []>("@model_path/weights/weight.bin"), offset = tensor<uint64, []>(13820096)))];
            tensor<fp32, [128]> const_71 = const()[name = tensor<string, []>("const_71"), val = tensor<fp32, [128]>(BLOBFILE(path = tensor<string, []>("@model_path/weights/weight.bin"), offset = tensor<uint64, []>(14409984)))];
            tensor<fp32, [1, 128, 20, 250]> out_23 = conv(bias = const_71, dilations = input_157_dilations_0, groups = input_157_groups_0, pad = input_157_pad_0, pad_type = input_157_pad_type_0, strides = input_157_strides_0, weight = const_70, x = input_155)[name = tensor<string, []>("out_23")];
            tensor<fp32, [1, 128, 20, 250]> input_159 = add(x = out_23, y = input_149)[name = tensor<string, []>("input_159")];
            tensor<fp32, [1, 128, 20, 250]> input_161 = relu(x = input_159)[name = tensor<string, []>("input_161")];
            tensor<string, []> input_163_pad_type_0 = const()[name = tensor<string, []>("input_163_pad_type_0"), val = tensor<string, []>("custom")];
            tensor<int32, [4]> input_163_pad_0 = const()[name = tensor<string, []>("input_163_pad_0"), val = tensor<int32, [4]>([1, 1, 1, 1])];
            tensor<int32, [2]> input_163_strides_0 = const()[name = tensor<string, []>("input_163_strides_0"), val = tensor<int32, [2]>([1, 1])];
            tensor<int32, [2]> input_163_dilations_0 = const()[name = tensor<string, []>("input_163_dilations_0"), val = tensor<int32, [2]>([1, 1])];
            tensor<int32, []> input_163_groups_0 = const()[name = tensor<string, []>("input_163_groups_0"), val = tensor<int32, []>(1)];
            tensor<fp32, [128, 128, 3, 3]> const_72 = const()[name = tensor<string, []>("const_72"), val = tensor<fp32, [128, 128, 3, 3]>(BLOBFILE(path = tensor<string, []>("@model_path/weights/weight.bin"), offset = tensor<uint64, []>(14410560)))];
            tensor<fp32, [128]> const_73 = const()[name = tensor<string, []>("const_73"), val = tensor<fp32, [128]>(BLOBFILE(path = tensor<string, []>("@model_path/weights/weight.bin"), offset = tensor<uint64, []>(15000448)))];
            tensor<fp32, [1, 128, 20, 250]> input_165 = conv(bias = const_73, dilations = input_163_dilations_0, groups = input_163_groups_0, pad = input_163_pad_0, pad_type = input_163_pad_type_0, strides = input_163_strides_0, weight = const_72, x = input_161)[name = tensor<string, []>("input_165")];
            tensor<fp32, [1, 128, 20, 250]> input_167 = relu(x = input_165)[name = tensor<string, []>("input_167")];
            tensor<string, []> input_169_pad_type_0 = const()[name = tensor<string, []>("input_169_pad_type_0"), val = tensor<string, []>("custom")];
            tensor<int32, [4]> input_169_pad_0 = const()[name = tensor<string, []>("input_169_pad_0"), val = tensor<int32, [4]>([1, 1, 1, 1])];
            tensor<int32, [2]> input_169_strides_0 = const()[name = tensor<string, []>("input_169_strides_0"), val = tensor<int32, [2]>([1, 1])];
            tensor<int32, [2]> input_169_dilations_0 = const()[name = tensor<string, []>("input_169_dilations_0"), val = tensor<int32, [2]>([1, 1])];
            tensor<int32, []> input_169_groups_0 = const()[name = tensor<string, []>("input_169_groups_0"), val = tensor<int32, []>(1)];
            tensor<fp32, [128, 128, 3, 3]> const_74 = const()[name = tensor<string, []>("const_74"), val = tensor<fp32, [128, 128, 3, 3]>(BLOBFILE(path = tensor<string, []>("@model_path/weights/weight.bin"), offset = tensor<uint64, []>(15001024)))];
            tensor<fp32, [128]> const_75 = const()[name = tensor<string, []>("const_75"), val = tensor<fp32, [128]>(BLOBFILE(path = tensor<string, []>("@model_path/weights/weight.bin"), offset = tensor<uint64, []>(15590912)))];
            tensor<fp32, [1, 128, 20, 250]> out_25 = conv(bias = const_75, dilations = input_169_dilations_0, groups = input_169_groups_0, pad = input_169_pad_0, pad_type = input_169_pad_type_0, strides = input_169_strides_0, weight = const_74, x = input_167)[name = tensor<string, []>("out_25")];
            tensor<fp32, [1, 128, 20, 250]> input_171 = add(x = out_25, y = input_161)[name = tensor<string, []>("input_171")];
            tensor<fp32, [1, 128, 20, 250]> input_173 = relu(x = input_171)[name = tensor<string, []>("input_173")];
            tensor<string, []> input_175_pad_type_0 = const()[name = tensor<string, []>("input_175_pad_type_0"), val = tensor<string, []>("custom")];
            tensor<int32, [4]> input_175_pad_0 = const()[name = tensor<string, []>("input_175_pad_0"), val = tensor<int32, [4]>([1, 1, 1, 1])];
            tensor<int32, [2]> input_175_strides_0 = const()[name = tensor<string, []>("input_175_strides_0"), val = tensor<int32, [2]>([2, 2])];
            tensor<int32, [2]> input_175_dilations_0 = const()[name = tensor<string, []>("input_175_dilations_0"), val = tensor<int32, [2]>([1, 1])];
            tensor<int32, []> input_175_groups_0 = const()[name = tensor<string, []>("input_175_groups_0"), val = tensor<int32, []>(1)];
            tensor<fp32, [256, 128, 3, 3]> const_76 = const()[name = tensor<string, []>("const_76"), val = tensor<fp32, [256, 128, 3, 3]>(BLOBFILE(path = tensor<string, []>("@model_path/weights/weight.bin"), offset = tensor<uint64, []>(15591488)))];
            tensor<fp32, [256]> const_77 = const()[name = tensor<string, []>("const_77"), val = tensor<fp32, [256]>(BLOBFILE(path = tensor<string, []>("@model_path/weights/weight.bin"), offset = tensor<uint64, []>(16771200)))];
            tensor<fp32, [1, 256, 10, 125]> input_177 = conv(bias = const_77, dilations = input_175_dilations_0, groups = input_175_groups_0, pad = input_175_pad_0, pad_type = input_175_pad_type_0, strides = input_175_strides_0, weight = const_76, x = input_173)[name = tensor<string, []>("input_177")];
            tensor<fp32, [1, 256, 10, 125]> input_179 = relu(x = input_177)[name = tensor<string, []>("input_179")];
            tensor<string, []> input_181_pad_type_0 = const()[name = tensor<string, []>("input_181_pad_type_0"), val = tensor<string, []>("custom")];
            tensor<int32, [4]> input_181_pad_0 = const()[name = tensor<string, []>("input_181_pad_0"), val = tensor<int32, [4]>([1, 1, 1, 1])];
            tensor<int32, [2]> input_181_strides_0 = const()[name = tensor<string, []>("input_181_strides_0"), val = tensor<int32, [2]>([1, 1])];
            tensor<int32, [2]> input_181_dilations_0 = const()[name = tensor<string, []>("input_181_dilations_0"), val = tensor<int32, [2]>([1, 1])];
            tensor<int32, []> input_181_groups_0 = const()[name = tensor<string, []>("input_181_groups_0"), val = tensor<int32, []>(1)];
            tensor<fp32, [256, 256, 3, 3]> const_78 = const()[name = tensor<string, []>("const_78"), val = tensor<fp32, [256, 256, 3, 3]>(BLOBFILE(path = tensor<string, []>("@model_path/weights/weight.bin"), offset = tensor<uint64, []>(16772288)))];
            tensor<fp32, [256]> const_79 = const()[name = tensor<string, []>("const_79"), val = tensor<fp32, [256]>(BLOBFILE(path = tensor<string, []>("@model_path/weights/weight.bin"), offset = tensor<uint64, []>(19131648)))];
            tensor<fp32, [1, 256, 10, 125]> out_27 = conv(bias = const_79, dilations = input_181_dilations_0, groups = input_181_groups_0, pad = input_181_pad_0, pad_type = input_181_pad_type_0, strides = input_181_strides_0, weight = const_78, x = input_179)[name = tensor<string, []>("out_27")];
            tensor<string, []> input_183_pad_type_0 = const()[name = tensor<string, []>("input_183_pad_type_0"), val = tensor<string, []>("valid")];
            tensor<int32, [2]> input_183_strides_0 = const()[name = tensor<string, []>("input_183_strides_0"), val = tensor<int32, [2]>([2, 2])];
            tensor<int32, [4]> input_183_pad_0 = const()[name = tensor<string, []>("input_183_pad_0"), val = tensor<int32, [4]>([0, 0, 0, 0])];
            tensor<int32, [2]> input_183_dilations_0 = const()[name = tensor<string, []>("input_183_dilations_0"), val = tensor<int32, [2]>([1, 1])];
            tensor<int32, []> input_183_groups_0 = const()[name = tensor<string, []>("input_183_groups_0"), val = tensor<int32, []>(1)];
            tensor<fp32, [256, 128, 1, 1]> const_80 = const()[name = tensor<string, []>("const_80"), val = tensor<fp32, [256, 128, 1, 1]>(BLOBFILE(path = tensor<string, []>("@model_path/weights/weight.bin"), offset = tensor<uint64, []>(19132736)))];
            tensor<fp32, [256]> const_81 = const()[name = tensor<string, []>("const_81"), val = tensor<fp32, [256]>(BLOBFILE(path = tensor<string, []>("@model_path/weights/weight.bin"), offset = tensor<uint64, []>(19263872)))];
            tensor<fp32, [1, 256, 10, 125]> var_5699 = conv(bias = const_81, dilations = input_183_dilations_0, groups = input_183_groups_0, pad = input_183_pad_0, pad_type = input_183_pad_type_0, strides = input_183_strides_0, weight = const_80, x = input_173)[name = tensor<string, []>("op_5699")];
            tensor<fp32, [1, 256, 10, 125]> input_185 = add(x = out_27, y = var_5699)[name = tensor<string, []>("input_185")];
            tensor<fp32, [1, 256, 10, 125]> input_187 = relu(x = input_185)[name = tensor<string, []>("input_187")];
            tensor<string, []> input_189_pad_type_0 = const()[name = tensor<string, []>("input_189_pad_type_0"), val = tensor<string, []>("custom")];
            tensor<int32, [4]> input_189_pad_0 = const()[name = tensor<string, []>("input_189_pad_0"), val = tensor<int32, [4]>([1, 1, 1, 1])];
            tensor<int32, [2]> input_189_strides_0 = const()[name = tensor<string, []>("input_189_strides_0"), val = tensor<int32, [2]>([1, 1])];
            tensor<int32, [2]> input_189_dilations_0 = const()[name = tensor<string, []>("input_189_dilations_0"), val = tensor<int32, [2]>([1, 1])];
            tensor<int32, []> input_189_groups_0 = const()[name = tensor<string, []>("input_189_groups_0"), val = tensor<int32, []>(1)];
            tensor<fp32, [256, 256, 3, 3]> const_82 = const()[name = tensor<string, []>("const_82"), val = tensor<fp32, [256, 256, 3, 3]>(BLOBFILE(path = tensor<string, []>("@model_path/weights/weight.bin"), offset = tensor<uint64, []>(19264960)))];
            tensor<fp32, [256]> const_83 = const()[name = tensor<string, []>("const_83"), val = tensor<fp32, [256]>(BLOBFILE(path = tensor<string, []>("@model_path/weights/weight.bin"), offset = tensor<uint64, []>(21624320)))];
            tensor<fp32, [1, 256, 10, 125]> input_191 = conv(bias = const_83, dilations = input_189_dilations_0, groups = input_189_groups_0, pad = input_189_pad_0, pad_type = input_189_pad_type_0, strides = input_189_strides_0, weight = const_82, x = input_187)[name = tensor<string, []>("input_191")];
            tensor<fp32, [1, 256, 10, 125]> input_193 = relu(x = input_191)[name = tensor<string, []>("input_193")];
            tensor<string, []> input_195_pad_type_0 = const()[name = tensor<string, []>("input_195_pad_type_0"), val = tensor<string, []>("custom")];
            tensor<int32, [4]> input_195_pad_0 = const()[name = tensor<string, []>("input_195_pad_0"), val = tensor<int32, [4]>([1, 1, 1, 1])];
            tensor<int32, [2]> input_195_strides_0 = const()[name = tensor<string, []>("input_195_strides_0"), val = tensor<int32, [2]>([1, 1])];
            tensor<int32, [2]> input_195_dilations_0 = const()[name = tensor<string, []>("input_195_dilations_0"), val = tensor<int32, [2]>([1, 1])];
            tensor<int32, []> input_195_groups_0 = const()[name = tensor<string, []>("input_195_groups_0"), val = tensor<int32, []>(1)];
            tensor<fp32, [256, 256, 3, 3]> const_84 = const()[name = tensor<string, []>("const_84"), val = tensor<fp32, [256, 256, 3, 3]>(BLOBFILE(path = tensor<string, []>("@model_path/weights/weight.bin"), offset = tensor<uint64, []>(21625408)))];
            tensor<fp32, [256]> const_85 = const()[name = tensor<string, []>("const_85"), val = tensor<fp32, [256]>(BLOBFILE(path = tensor<string, []>("@model_path/weights/weight.bin"), offset = tensor<uint64, []>(23984768)))];
            tensor<fp32, [1, 256, 10, 125]> out_29 = conv(bias = const_85, dilations = input_195_dilations_0, groups = input_195_groups_0, pad = input_195_pad_0, pad_type = input_195_pad_type_0, strides = input_195_strides_0, weight = const_84, x = input_193)[name = tensor<string, []>("out_29")];
            tensor<fp32, [1, 256, 10, 125]> input_197 = add(x = out_29, y = input_187)[name = tensor<string, []>("input_197")];
            tensor<fp32, [1, 256, 10, 125]> input_199 = relu(x = input_197)[name = tensor<string, []>("input_199")];
            tensor<string, []> input_201_pad_type_0 = const()[name = tensor<string, []>("input_201_pad_type_0"), val = tensor<string, []>("custom")];
            tensor<int32, [4]> input_201_pad_0 = const()[name = tensor<string, []>("input_201_pad_0"), val = tensor<int32, [4]>([1, 1, 1, 1])];
            tensor<int32, [2]> input_201_strides_0 = const()[name = tensor<string, []>("input_201_strides_0"), val = tensor<int32, [2]>([1, 1])];
            tensor<int32, [2]> input_201_dilations_0 = const()[name = tensor<string, []>("input_201_dilations_0"), val = tensor<int32, [2]>([1, 1])];
            tensor<int32, []> input_201_groups_0 = const()[name = tensor<string, []>("input_201_groups_0"), val = tensor<int32, []>(1)];
            tensor<fp32, [256, 256, 3, 3]> const_86 = const()[name = tensor<string, []>("const_86"), val = tensor<fp32, [256, 256, 3, 3]>(BLOBFILE(path = tensor<string, []>("@model_path/weights/weight.bin"), offset = tensor<uint64, []>(23985856)))];
            tensor<fp32, [256]> const_87 = const()[name = tensor<string, []>("const_87"), val = tensor<fp32, [256]>(BLOBFILE(path = tensor<string, []>("@model_path/weights/weight.bin"), offset = tensor<uint64, []>(26345216)))];
            tensor<fp32, [1, 256, 10, 125]> input_203 = conv(bias = const_87, dilations = input_201_dilations_0, groups = input_201_groups_0, pad = input_201_pad_0, pad_type = input_201_pad_type_0, strides = input_201_strides_0, weight = const_86, x = input_199)[name = tensor<string, []>("input_203")];
            tensor<fp32, [1, 256, 10, 125]> input_205 = relu(x = input_203)[name = tensor<string, []>("input_205")];
            tensor<string, []> input_207_pad_type_0 = const()[name = tensor<string, []>("input_207_pad_type_0"), val = tensor<string, []>("custom")];
            tensor<int32, [4]> input_207_pad_0 = const()[name = tensor<string, []>("input_207_pad_0"), val = tensor<int32, [4]>([1, 1, 1, 1])];
            tensor<int32, [2]> input_207_strides_0 = const()[name = tensor<string, []>("input_207_strides_0"), val = tensor<int32, [2]>([1, 1])];
            tensor<int32, [2]> input_207_dilations_0 = const()[name = tensor<string, []>("input_207_dilations_0"), val = tensor<int32, [2]>([1, 1])];
            tensor<int32, []> input_207_groups_0 = const()[name = tensor<string, []>("input_207_groups_0"), val = tensor<int32, []>(1)];
            tensor<fp32, [256, 256, 3, 3]> const_88 = const()[name = tensor<string, []>("const_88"), val = tensor<fp32, [256, 256, 3, 3]>(BLOBFILE(path = tensor<string, []>("@model_path/weights/weight.bin"), offset = tensor<uint64, []>(26346304)))];
            tensor<fp32, [256]> const_89 = const()[name = tensor<string, []>("const_89"), val = tensor<fp32, [256]>(BLOBFILE(path = tensor<string, []>("@model_path/weights/weight.bin"), offset = tensor<uint64, []>(28705664)))];
            tensor<fp32, [1, 256, 10, 125]> out = conv(bias = const_89, dilations = input_207_dilations_0, groups = input_207_groups_0, pad = input_207_pad_0, pad_type = input_207_pad_type_0, strides = input_207_strides_0, weight = const_88, x = input_205)[name = tensor<string, []>("out")];
            tensor<fp32, [1, 256, 10, 125]> input_209 = add(x = out, y = input_199)[name = tensor<string, []>("input_209")];
            tensor<fp32, [1, 256, 10, 125]> x = relu(x = input_209)[name = tensor<string, []>("x")];
            tensor<int32, [3]> var_5778 = const()[name = tensor<string, []>("op_5778"), val = tensor<int32, [3]>([1, 2560, 125])];
            tensor<fp32, [1, 2560, 125]> sequences = reshape(shape = var_5778, x = x)[name = tensor<string, []>("sequences")];
            tensor<int32, [1]> weights_3_axes_0 = const()[name = tensor<string, []>("weights_3_axes_0"), val = tensor<int32, [1]>([1])];
            tensor<fp32, [3, 1, 589]> weights_3 = expand_dims(axes = weights_3_axes_0, x = mask)[name = tensor<string, []>("weights_3")];
            tensor<int32, [1]> expand_dims_0_axes_0 = const()[name = tensor<string, []>("expand_dims_0_axes_0"), val = tensor<int32, [1]>([3])];
            tensor<fp32, [3, 1, 589, 1]> expand_dims_0 = expand_dims(axes = expand_dims_0_axes_0, x = weights_3)[name = tensor<string, []>("expand_dims_0")];
            tensor<fp32, []> upsample_nearest_neighbor_0_scale_factor_height_0 = const()[name = tensor<string, []>("upsample_nearest_neighbor_0_scale_factor_height_0"), val = tensor<fp32, []>(0x1.b2a2a4p-3)];
            tensor<fp32, []> upsample_nearest_neighbor_0_scale_factor_width_0 = const()[name = tensor<string, []>("upsample_nearest_neighbor_0_scale_factor_width_0"), val = tensor<fp32, []>(0x1p+0)];
            tensor<fp32, [3, 1, 125, 1]> upsample_nearest_neighbor_0 = upsample_nearest_neighbor(scale_factor_height = upsample_nearest_neighbor_0_scale_factor_height_0, scale_factor_width = upsample_nearest_neighbor_0_scale_factor_width_0, x = expand_dims_0)[name = tensor<string, []>("upsample_nearest_neighbor_0")];
            tensor<int32, [1]> weights_5_axes_0 = const()[name = tensor<string, []>("weights_5_axes_0"), val = tensor<int32, [1]>([3])];
            tensor<fp32, [3, 1, 125]> weights_5 = squeeze(axes = weights_5_axes_0, x = upsample_nearest_neighbor_0)[name = tensor<string, []>("weights_5")];
            tensor<int32, [3]> var_5785_begin_0 = const()[name = tensor<string, []>("op_5785_begin_0"), val = tensor<int32, [3]>([0, 0, 0])];
            tensor<int32, [3]> var_5785_end_0 = const()[name = tensor<string, []>("op_5785_end_0"), val = tensor<int32, [3]>([3, 1, 125])];
            tensor<bool, [3]> var_5785_end_mask_0 = const()[name = tensor<string, []>("op_5785_end_mask_0"), val = tensor<bool, [3]>([true, false, true])];
            tensor<bool, [3]> var_5785_squeeze_mask_0 = const()[name = tensor<string, []>("op_5785_squeeze_mask_0"), val = tensor<bool, [3]>([false, true, false])];
            tensor<fp32, [3, 125]> var_5785 = slice_by_index(begin = var_5785_begin_0, end = var_5785_end_0, end_mask = var_5785_end_mask_0, squeeze_mask = var_5785_squeeze_mask_0, x = weights_5)[name = tensor<string, []>("op_5785")];
            tensor<int32, [1]> weights_axes_0 = const()[name = tensor<string, []>("weights_axes_0"), val = tensor<int32, [1]>([1])];
            tensor<fp32, [3, 1, 125]> weights = expand_dims(axes = weights_axes_0, x = var_5785)[name = tensor<string, []>("weights")];
            tensor<int32, [1]> var_5789_axes_0 = const()[name = tensor<string, []>("op_5789_axes_0"), val = tensor<int32, [1]>([2])];
            tensor<bool, []> var_5789_keep_dims_0 = const()[name = tensor<string, []>("op_5789_keep_dims_0"), val = tensor<bool, []>(false)];
            tensor<fp32, [3, 1]> var_5789 = reduce_sum(axes = var_5789_axes_0, keep_dims = var_5789_keep_dims_0, x = weights)[name = tensor<string, []>("op_5789")];
            tensor<fp32, []> var_5790 = const()[name = tensor<string, []>("op_5790"), val = tensor<fp32, []>(0x1.5798eep-27)];
            tensor<fp32, [3, 1]> v1 = add(x = var_5789, y = var_5790)[name = tensor<string, []>("v1")];
            tensor<fp32, [3, 2560, 125]> var_5792 = mul(x = sequences, y = weights)[name = tensor<string, []>("op_5792")];
            tensor<int32, [1]> var_5794_axes_0 = const()[name = tensor<string, []>("op_5794_axes_0"), val = tensor<int32, [1]>([2])];
            tensor<bool, []> var_5794_keep_dims_0 = const()[name = tensor<string, []>("op_5794_keep_dims_0"), val = tensor<bool, []>(false)];
            tensor<fp32, [3, 2560]> var_5794 = reduce_sum(axes = var_5794_axes_0, keep_dims = var_5794_keep_dims_0, x = var_5792)[name = tensor<string, []>("op_5794")];
            tensor<fp32, [3, 2560]> mean = real_div(x = var_5794, y = v1)[name = tensor<string, []>("mean")];
            tensor<int32, [1]> var_5796_axes_0 = const()[name = tensor<string, []>("op_5796_axes_0"), val = tensor<int32, [1]>([2])];
            tensor<fp32, [3, 2560, 1]> var_5796 = expand_dims(axes = var_5796_axes_0, x = mean)[name = tensor<string, []>("op_5796")];
            tensor<fp32, [3, 2560, 125]> var_5797 = sub(x = sequences, y = var_5796)[name = tensor<string, []>("op_5797")];
            tensor<fp32, [3, 2560, 125]> dx2 = mul(x = var_5797, y = var_5797)[name = tensor<string, []>("dx2")];
            tensor<fp32, [3, 1, 125]> var_5799 = mul(x = weights, y = weights)[name = tensor<string, []>("op_5799")];
            tensor<int32, [1]> v2_axes_0 = const()[name = tensor<string, []>("v2_axes_0"), val = tensor<int32, [1]>([2])];
            tensor<bool, []> v2_keep_dims_0 = const()[name = tensor<string, []>("v2_keep_dims_0"), val = tensor<bool, []>(false)];
            tensor<fp32, [3, 1]> v2 = reduce_sum(axes = v2_axes_0, keep_dims = v2_keep_dims_0, x = var_5799)[name = tensor<string, []>("v2")];
            tensor<fp32, [3, 2560, 125]> var_5802 = mul(x = dx2, y = weights)[name = tensor<string, []>("op_5802")];
            tensor<int32, [1]> var_5804_axes_0 = const()[name = tensor<string, []>("op_5804_axes_0"), val = tensor<int32, [1]>([2])];
            tensor<bool, []> var_5804_keep_dims_0 = const()[name = tensor<string, []>("op_5804_keep_dims_0"), val = tensor<bool, []>(false)];
            tensor<fp32, [3, 2560]> var_5804 = reduce_sum(axes = var_5804_axes_0, keep_dims = var_5804_keep_dims_0, x = var_5802)[name = tensor<string, []>("op_5804")];
            tensor<fp32, [3, 1]> var_5805 = real_div(x = v2, y = v1)[name = tensor<string, []>("op_5805")];
            tensor<fp32, [3, 1]> var_5806 = sub(x = v1, y = var_5805)[name = tensor<string, []>("op_5806")];
            tensor<fp32, []> var_5807 = const()[name = tensor<string, []>("op_5807"), val = tensor<fp32, []>(0x1.5798eep-27)];
            tensor<fp32, [3, 1]> var_5808 = add(x = var_5806, y = var_5807)[name = tensor<string, []>("op_5808")];
            tensor<fp32, [3, 2560]> var = real_div(x = var_5804, y = var_5808)[name = tensor<string, []>("var")];
            tensor<fp32, [3, 2560]> std = sqrt(x = var)[name = tensor<string, []>("std")];
            tensor<bool, []> var_5812_interleave_0 = const()[name = tensor<string, []>("op_5812_interleave_0"), val = tensor<bool, []>(false)];
            tensor<fp32, [3, 5120]> var_5812 = concat(axis = var_5213, interleave = var_5812_interleave_0, values = (mean, std))[name = tensor<string, []>("op_5812")];
            tensor<int32, [1]> output_axes_0 = const()[name = tensor<string, []>("output_axes_0"), val = tensor<int32, [1]>([1])];
            tensor<fp32, [3, 1, 5120]> output = expand_dims(axes = output_axes_0, x = var_5812)[name = tensor<string, []>("output")];
            tensor<int32, [1]> input_axes_0 = const()[name = tensor<string, []>("input_axes_0"), val = tensor<int32, [1]>([1])];
            tensor<fp32, [3, 5120]> input = squeeze(axes = input_axes_0, x = output)[name = tensor<string, []>("input")];
            tensor<fp32, [3, 256]> embedding = linear(bias = resnet_seg_1_bias, weight = resnet_seg_1_weight, x = input)[name = tensor<string, []>("linear_0")];
            tensor<fp32, []> constant = const()[name = tensor<string, []>("const_17"), val = tensor<fp32, []>(0x0p+0)];
        } -> (constant, embedding);
}